…
tate', 'isWeekend', 'isWeekStart', 'isWeekEnd', 'isMonthStart', 'isMonthEnd', 'isHoliday', '4260705920294', 'total_quantity_day', 'DayoftheMonth_cos', 'DayoftheMonth_sin', 'WeekoftheMonth_cos', 'WeekoftheMonth_sin', 'DayoftheWeek_cos', 'DayoftheWeek_sin']","(183,)/(47,)/(21,)",32,100,0.001,Adam,True,False,7,1,1,4260705920294,1.2364860557757915,"Model: ""sequential_207""
_________________________________________________________________
 Layer (type)                Output Shape              Param #   
=================================================================
 flatten_165 (Flatten)       (None, 224)               0         
                                                                 
 dense_361 (Dense)           (None, 64)                14400     
                                                                 
 dense_362 (Dense)           (None, 64)                4160      
                                                                 
 dropout_164 (Dropout)       (None, 64)                0         
                                                                 
 dense_363 (Dense)           (None, 1)                 65        
                                                                 
 reshape_207 (Reshape)       (None, 1, 1)              0         
                                                                 
=================================================================
Total params: 18,625
Trainable params: 18,625
Non-trainable params: 0
_________________________________________________________________",74.38671875,18625.0,0.0,9.0,4.0
