…
'4260705920553', '4260705920560', '4260705920577', '4260705920584', '4260705920591', '4260705920607', '4260705920638', 'total_quantity_day', 'DayoftheMonth_cos', 'DayoftheMonth_sin', 'WeekoftheMonth_cos', 'WeekoftheMonth_sin', 'DayoftheWeek_cos', 'DayoftheWeek_sin']","(187,)/(51,)/(25,)",32,100,0.001,Adam,True,False,3,1,1,All,2.3939505703424833,"Model: ""sequential_84""
_________________________________________________________________
 Layer (type)                Output Shape              Param #   
=================================================================
 flatten_63 (Flatten)        (None, 207)               0         
                                                                 
 dense_140 (Dense)           (None, 64)                13312     
                                                                 
 dense_141 (Dense)           (None, 64)                4160      
                                                                 
 dropout_63 (Dropout)        (None, 64)                0         
                                                                 
 dense_142 (Dense)           (None, 69)                4485      
                                                                 
 reshape_84 (Reshape)        (None, 1, 69)             0         
                                                                 
=================================================================
Total params: 21,957
Trainable params: 21,957
Non-trainable params: 0
_________________________________________________________________",87.8671875,21957.0,0.0,2.0,1.0
