…
state', 'isWeekend', 'isWeekStart', 'isWeekEnd', 'isMonthStart', 'isMonthEnd', 'isHoliday', '4260705920294', 'total_quantity_day', 'DayoftheMonth_cos', 'DayoftheMonth_sin', 'WeekoftheMonth_cos', 'WeekoftheMonth_sin', 'DayoftheWeek_cos', 'DayoftheWeek_sin']","(183,)/(47,)/(21,)",32,100,0.001,Adam,True,False,7,1,1,4260705920294,1.316119521911298,"Model: ""sequential_213""
_________________________________________________________________
 Layer (type)                Output Shape              Param #   
=================================================================
 flatten_171 (Flatten)       (None, 224)               0         
                                                                 
 dense_374 (Dense)           (None, 32)                7200      
                                                                 
 dropout_170 (Dropout)       (None, 32)                0         
                                                                 
 dense_375 (Dense)           (None, 32)                1056      
                                                                 
 dropout_171 (Dropout)       (None, 32)                0         
                                                                 
 dense_376 (Dense)           (None, 1)                 33        
                                                                 
 reshape_213 (Reshape)       (None, 1, 1)              0         
                                                                 
=================================================================
Total params: 8,289
Trainable params: 8,289
Non-trainable params: 0
_________________________________________________________________",33.76171875,8289.0,0.0,17.0,11.0
