…
0705920546', '4260705920553', '4260705920560', '4260705920577', '4260705920584', '4260705920591', '4260705920607', '4260705920638', 'total_quantity_day', 'DayoftheMonth_cos', 'DayoftheMonth_sin', 'WeekoftheMonth_cos', 'WeekoftheMonth_sin', 'DayoftheWeek_cos', 'DayoftheWeek_sin']",187/51/25,32,100,0.001,Adam,True,False,3,1,1,All,1.038323193916333,"Model: ""sequential_5""
_________________________________________________________________
 Layer (type)                Output Shape              Param #   
=================================================================
 flatten_5 (Flatten)         (None, 261)               0         
                                                                 
 dense_10 (Dense)            (None, 64)                16768     
                                                                 
 dropout_6 (Dropout)         (None, 64)                0         
                                                                 
 dense_11 (Dense)            (None, 64)                4160      
                                                                 
 dropout_7 (Dropout)         (None, 64)                0         
                                                                 
 dense_12 (Dense)            (None, 87)                5655      
                                                                 
 reshape_5 (Reshape)         (None, 1, 87)             0         
                                                                 
=================================================================
Total params: 26,583
Trainable params: 26,583
Non-trainable params: 0
_________________________________________________________________",0.1209564208984375,26583.0,0.0
2,RNN,0.5027703046798706,0.8822830319404602,1.0064259767532349,0.7312602400779724,2.841822
…
705920546', '4260705920553', '4260705920560', '4260705920577', '4260705920584', '4260705920591', '4260705920607', '4260705920638', 'total_quantity_day', 'DayoftheMonth_cos', 'DayoftheMonth_sin', 'WeekoftheMonth_cos', 'WeekoftheMonth_sin', 'DayoftheWeek_cos', 'DayoftheWeek_sin']",187/51/25,32,100,0.001,Adam,True,False,3,1,1,All,0.9088517110265797,"Model: ""sequential_6""
_________________________________________________________________
 Layer (type)                Output Shape              Param #   
=================================================================
 lstm_1 (LSTM)               (None, 3, 16)             6656      
                                                                 
 flatten_6 (Flatten)         (None, 48)                0         
                                                                 
 dropout_8 (Dropout)         (None, 48)                0         
                                                                 
 dense_13 (Dense)            (None, 87)                4263      
                                                                 
 reshape_6 (Reshape)         (None, 1, 87)             0         
                                                                 
=================================================================
Total params: 10,919
Trainable params: 10,919
Non-trainable params: 0
_________________________________________________________________",0.059600830078125,10919.0,0.0
3,ResidualRNN,0.5449503064155579,0.774215817451477,0.7833001613616943,1.2812364101409912,3.
…
