…
705920546', '4260705920553', '4260705920560', '4260705920577', '4260705920584', '4260705920591', '4260705920607', '4260705920638', 'total_quantity_day', 'DayoftheMonth_cos', 'DayoftheMonth_sin', 'WeekoftheMonth_cos', 'WeekoftheMonth_sin', 'DayoftheWeek_cos', 'DayoftheWeek_sin']",187/51/25,32,100,0.001,Adam,True,False,3,1,1,All,0.7024524714828608,"Model: ""sequential_5""
_________________________________________________________________
 Layer (type)                Output Shape              Param #   
=================================================================
 flatten_5 (Flatten)         (None, 261)               0         
                                                                 
 dense_10 (Dense)            (None, 64)                16768     
                                                                 
 dropout_6 (Dropout)         (None, 64)                0         
                                                                 
 dense_11 (Dense)            (None, 64)                4160      
                                                                 
 dropout_7 (Dropout)         (None, 64)                0         
                                                                 
 dense_12 (Dense)            (None, 87)                5655      
                                                                 
 reshape_5 (Reshape)         (None, 1, 87)             0         
                                                                 
=================================================================
Total params: 26,583
Trainable params: 26,583
Non-trainable params: 0
_________________________________________________________________",0.1209564208984375,26583.0,0.0
2,RNN,0.7304977774620056,2.6984736919403076,4.005082130432129,0.5035308599472046,0.8630338
…
705920546', '4260705920553', '4260705920560', '4260705920577', '4260705920584', '4260705920591', '4260705920607', '4260705920638', 'total_quantity_day', 'DayoftheMonth_cos', 'DayoftheMonth_sin', 'WeekoftheMonth_cos', 'WeekoftheMonth_sin', 'DayoftheWeek_cos', 'DayoftheWeek_sin']",187/51/25,32,100,0.001,Adam,True,False,3,1,1,All,0.7389809885931368,"Model: ""sequential_6""
_________________________________________________________________
 Layer (type)                Output Shape              Param #   
=================================================================
 lstm_1 (LSTM)               (None, 3, 16)             6656      
                                                                 
 flatten_6 (Flatten)         (None, 48)                0         
                                                                 
 dropout_8 (Dropout)         (None, 48)                0         
                                                                 
 dense_13 (Dense)            (None, 87)                4263      
                                                                 
 reshape_6 (Reshape)         (None, 1, 87)             0         
                                                                 
=================================================================
Total params: 10,919
Trainable params: 10,919
Non-trainable params: 0
_________________________________________________________________",0.059600830078125,10919.0,0.0
3,ResidualRNN,1.2748830318450928,3.4332265853881836,3.769792079925537,0.544291079044342,0.7
…
