…
05920546', '4260705920553', '4260705920560', '4260705920577', '4260705920584', '4260705920591', '4260705920607', '4260705920638', 'total_quantity_day', 'DayoftheMonth_cos', 'DayoftheMonth_sin', 'WeekoftheMonth_cos', 'WeekoftheMonth_sin', 'DayoftheWeek_cos', 'DayoftheWeek_sin']",187/51/25,32,100,0.001,Adam,True,False,3,1,1,All,0.9595741444866538,"Model: ""sequential_12""
_________________________________________________________________
 Layer (type)                Output Shape              Param #   
=================================================================
 flatten_9 (Flatten)         (None, 207)               0         
                                                                 
 dense_21 (Dense)            (None, 64)                13312     
                                                                 
 dropout_11 (Dropout)        (None, 64)                0         
                                                                 
 dense_22 (Dense)            (None, 64)                4160      
                                                                 
 dropout_12 (Dropout)        (None, 64)                0         
                                                                 
 dense_23 (Dense)            (None, 69)                4485      
                                                                 
 reshape_12 (Reshape)        (None, 1, 69)             0         
                                                                 
=================================================================
Total params: 21,957
Trainable params: 21,957
Non-trainable params: 0
_________________________________________________________________",0.1033782958984375,21957.0,0.0
2,RNN,0.4864358603954315,0.7982327342033386,0.9983988404273987,0.7431488633155823,2.785721
…
05920546', '4260705920553', '4260705920560', '4260705920577', '4260705920584', '4260705920591', '4260705920607', '4260705920638', 'total_quantity_day', 'DayoftheMonth_cos', 'DayoftheMonth_sin', 'WeekoftheMonth_cos', 'WeekoftheMonth_sin', 'DayoftheWeek_cos', 'DayoftheWeek_sin']",187/51/25,32,100,0.001,Adam,True,False,3,1,1,All,0.9552129277566038,"Model: ""sequential_13""
_________________________________________________________________
 Layer (type)                Output Shape              Param #   
=================================================================
 lstm_4 (LSTM)               (None, 3, 16)             5504      
                                                                 
 flatten_10 (Flatten)        (None, 48)                0         
                                                                 
 dropout_13 (Dropout)        (None, 48)                0         
                                                                 
 dense_24 (Dense)            (None, 69)                3381      
                                                                 
 reshape_13 (Reshape)        (None, 1, 69)             0         
                                                                 
=================================================================
Total params: 8,885
Trainable params: 8,885
Non-trainable params: 0
_________________________________________________________________",0.051910400390625,8885.0,0.0
3,ResidualRNN,0.521019458770752,0.8292686343193054,0.8834754228591919,1.299315094947815,4.0722
…
