…
260705920546', '4260705920553', '4260705920560', '4260705920577', '4260705920584', '4260705920591', '4260705920607', '4260705920638', 'total_quantity_day', 'DayoftheMonth_cos', 'DayoftheMonth_sin', 'WeekoftheMonth_cos', 'WeekoftheMonth_sin', 'DayoftheWeek_cos', 'DayoftheWeek_sin']",187/51/25,32,100,0.001,Adam,True,False,3,1,1,All,0.957688212927752,"Model: ""sequential""
_________________________________________________________________
 Layer (type)                Output Shape              Param #   
=================================================================
 flatten (Flatten)           (None, 261)               0         
                                                                 
 dense (Dense)               (None, 64)                16768     
                                                                 
 dropout (Dropout)           (None, 64)                0         
                                                                 
 dense_1 (Dense)             (None, 64)                4160      
                                                                 
 dropout_1 (Dropout)         (None, 64)                0         
                                                                 
 dense_2 (Dense)             (None, 87)                5655      
                                                                 
 reshape (Reshape)           (None, 1, 87)             0         
                                                                 
=================================================================
Total params: 26,583
Trainable params: 26,583
Non-trainable params: 0
_________________________________________________________________",106.5390625,26583.0,0.0
2,RNN,0.504892885684967,0.8578411936759949,0.9997205138206482,0.7372334003448486,2.61385846138000
…
705920546', '4260705920553', '4260705920560', '4260705920577', '4260705920584', '4260705920591', '4260705920607', '4260705920638', 'total_quantity_day', 'DayoftheMonth_cos', 'DayoftheMonth_sin', 'WeekoftheMonth_cos', 'WeekoftheMonth_sin', 'DayoftheWeek_cos', 'DayoftheWeek_sin']",187/51/25,32,100,0.001,Adam,True,False,3,1,1,All,1.1230494296577842,"Model: ""sequential_1""
_________________________________________________________________
 Layer (type)                Output Shape              Param #   
=================================================================
 lstm (LSTM)                 (None, 3, 16)             6656      
                                                                 
 flatten_1 (Flatten)         (None, 48)                0         
                                                                 
 dropout_2 (Dropout)         (None, 48)                0         
                                                                 
 dense_3 (Dense)             (None, 87)                4263      
                                                                 
 reshape_1 (Reshape)         (None, 1, 87)             0         
                                                                 
=================================================================
Total params: 10,919
Trainable params: 10,919
Non-trainable params: 0
_________________________________________________________________",43.89453125,10919.0,0.0
3,ResidualRNN,0.5438443422317505,0.7677842974662781,0.7758791446685791,1.2748836278915405,3.45460
…
