…
 '4260705920553',
 '4260705920560',
 '4260705920577',
 '4260705920584',
 '4260705920591',
 '4260705920607',
 '4260705920638',
 'total_quantity_day',
 'DayoftheMonth_cos',
 'DayoftheMonth_sin',
 'WeekoftheMonth_cos',
 'WeekoftheMonth_sin',
 'DayoftheWeek_cos',
 'DayoftheWeek_sin']",187/51/25,32,100,0.001,Adam,True,False,3,1,1,All,0.7292851711026583,"Model: ""sequential""
_________________________________________________________________
 Layer (type)                Output Shape              Param #   
=================================================================
 flatten (Flatten)           (None, 261)               0         
                                                                 
 dense (Dense)               (None, 64)                16768     
                                                                 
 dropout (Dropout)           (None, 64)                0         
                                                                 
 dense_1 (Dense)             (None, 64)                4160      
                                                                 
 dropout_1 (Dropout)         (None, 64)                0         
                                                                 
 dense_2 (Dense)             (None, 87)                5655      
                                                                 
 reshape (Reshape)           (None, 1, 87)             0         
                                                                 
=================================================================
Total params: 26,583
Trainable params: 26,583
Non-trainable params: 0
_________________________________________________________________"
2,RNN,0.2233320027589798,2.964078426361084,3.985225200653076,0.29343733191490173,1.073199987411499,1.1949540376663208,MultiOutput,./../Data/merged_cleaned_FE_imputed(v)_w.csv,"['temperature_2m_max',
…
