…
60705920546', '4260705920553', '4260705920560', '4260705920577', '4260705920584', '4260705920591', '4260705920607', '4260705920638', 'total_quantity_day', 'DayoftheMonth_cos', 'DayoftheMonth_sin', 'WeekoftheMonth_cos', 'WeekoftheMonth_sin', 'DayoftheWeek_cos', 'DayoftheWeek_sin']",187/51/25,32,100,0.001,Adam,True,False,3,1,1,All,1.1443307984790831,"Model: ""sequential""
_________________________________________________________________
 Layer (type)                Output Shape              Param #   
=================================================================
 flatten (Flatten)           (None, 207)               0         
                                                                 
 dense (Dense)               (None, 64)                13312     
                                                                 
 dropout (Dropout)           (None, 64)                0         
                                                                 
 dense_1 (Dense)             (None, 64)                4160      
                                                                 
 dropout_1 (Dropout)         (None, 64)                0         
                                                                 
 dense_2 (Dense)             (None, 69)                4485      
                                                                 
 reshape (Reshape)           (None, 1, 69)             0         
                                                                 
=================================================================
Total params: 21,957
Trainable params: 21,957
Non-trainable params: 0
_________________________________________________________________",0.10345458984375,21957.0,0.0
2,RNN,0.7398148775100708,2.754518747329712,4.590231418609619,0.4839187562465668,0.7877219915
…
0705920546', '4260705920553', '4260705920560', '4260705920577', '4260705920584', '4260705920591', '4260705920607', '4260705920638', 'total_quantity_day', 'DayoftheMonth_cos', 'DayoftheMonth_sin', 'WeekoftheMonth_cos', 'WeekoftheMonth_sin', 'DayoftheWeek_cos', 'DayoftheWeek_sin']",187/51/25,32,100,0.001,Adam,True,False,3,1,1,All,1.167634980988567,"Model: ""sequential_1""
_________________________________________________________________
 Layer (type)                Output Shape              Param #   
=================================================================
 lstm (LSTM)                 (None, 3, 16)             5504      
                                                                 
 flatten_1 (Flatten)         (None, 48)                0         
                                                                 
 dropout_2 (Dropout)         (None, 48)                0         
                                                                 
 dense_3 (Dense)             (None, 69)                3381      
                                                                 
 reshape_1 (Reshape)         (None, 1, 69)             0         
                                                                 
=================================================================
Total params: 8,885
Trainable params: 8,885
Non-trainable params: 0
_________________________________________________________________",0.05167388916015625,8885.0,0.0
3,ResidualRNN,1.2985517978668213,4.055744647979736,4.516471862792969,0.5209512710571289,0.81
…
