…
 '4260705920553', '4260705920560', '4260705920577', '4260705920584', '4260705920591', '4260705920607', '4260705920638', 'total_quantity_day', 'DayoftheMonth_cos', 'DayoftheMonth_sin', 'WeekoftheMonth_cos', 'WeekoftheMonth_sin', 'DayoftheWeek_cos', 'DayoftheWeek_sin']",187/51/25,32,100,0.001,Adam,True,False,3,1,1,4260705920294,0.7904030418250907,"Model: ""sequential_20""
_________________________________________________________________
 Layer (type)                Output Shape              Param #   
=================================================================
 flatten_14 (Flatten)        (None, 207)               0         
                                                                 
 dense_32 (Dense)            (None, 64)                13312     
                                                                 
 dropout_16 (Dropout)        (None, 64)                0         
                                                                 
 dense_33 (Dense)            (None, 64)                4160      
                                                                 
 dropout_17 (Dropout)        (None, 64)                0         
                                                                 
 dense_34 (Dense)            (None, 1)                 65        
                                                                 
 reshape_20 (Reshape)        (None, 1, 1)              0         
                                                                 
=================================================================
Total params: 17,537
Trainable params: 17,537
Non-trainable params: 0
_________________________________________________________________",0.0865325927734375,17537.0,0.0
3,Multi Step Dense,0.9845907688140869,0.784048318862915,0.8187388777732849,0.7992756366729
…
 '4260705920553', '4260705920560', '4260705920577', '4260705920584', '4260705920591', '4260705920607', '4260705920638', 'total_quantity_day', 'DayoftheMonth_cos', 'DayoftheMonth_sin', 'WeekoftheMonth_cos', 'WeekoftheMonth_sin', 'DayoftheWeek_cos', 'DayoftheWeek_sin']",187/51/25,32,100,0.001,Adam,True,False,3,1,1,4260705920294,0.7566349809886879,"Model: ""sequential_21""
_________________________________________________________________
 Layer (type)                Output Shape              Param #   
=================================================================
 flatten_15 (Flatten)        (None, 207)               0         
                                                                 
 dense_35 (Dense)            (None, 32)                6656      
                                                                 
 dropout_18 (Dropout)        (None, 32)                0         
                                                                 
 dense_36 (Dense)            (None, 32)                1056      
                                                                 
 dropout_19 (Dropout)        (None, 32)                0         
                                                                 
 dense_37 (Dense)            (None, 1)                 33        
                                                                 
 reshape_21 (Reshape)        (None, 1, 1)              0         
                                                                 
=================================================================
Total params: 7,745
Trainable params: 7,745
Non-trainable params: 0
_________________________________________________________________",0.0495452880859375,7745.0,0.0
4,Convolutional,0.39966583251953125,1.034327507019043,1.247824788093567,0.5266814827919006,0.
…
 '4260705920553', '4260705920560', '4260705920577', '4260705920584', '4260705920591', '4260705920607', '4260705920638', 'total_quantity_day', 'DayoftheMonth_cos', 'DayoftheMonth_sin', 'WeekoftheMonth_cos', 'WeekoftheMonth_sin', 'DayoftheWeek_cos', 'DayoftheWeek_sin']",187/51/25,32,100,0.001,Adam,True,False,3,1,1,4260705920294,0.7791482889732654,"Model: ""sequential_22""
_________________________________________________________________
 Layer (type)                Output Shape              Param #   
=================================================================
 conv1d_3 (Conv1D)           (None, 2, 16)             2224      
                                                                 
 flatten_16 (Flatten)        (None, 32)                0         
                                                                 
 dense_38 (Dense)            (None, 32)                1056      
                                                                 
 dropout_20 (Dropout)        (None, 32)                0         
                                                                 
 dense_39 (Dense)            (None, 1)                 33        
                                                                 
 reshape_22 (Reshape)        (None, 1, 1)              0         
                                                                 
=================================================================
Total params: 3,313
Trainable params: 3,313
Non-trainable params: 0
_________________________________________________________________",0.0319671630859375,3313.0,0.0
5,RNN,0.6601325273513794,0.748228907585144,0.7395093441009521,0.676845133304596,0.68602257966
…
 '4260705920553', '4260705920560', '4260705920577', '4260705920584', '4260705920591', '4260705920607', '4260705920638', 'total_quantity_day', 'DayoftheMonth_cos', 'DayoftheMonth_sin', 'WeekoftheMonth_cos', 'WeekoftheMonth_sin', 'DayoftheWeek_cos', 'DayoftheWeek_sin']",187/51/25,32,100,0.001,Adam,True,False,3,1,1,4260705920294,0.7869163498098231,"Model: ""sequential_23""
_________________________________________________________________
 Layer (type)                Output Shape              Param #   
=================================================================
 lstm_7 (LSTM)               (None, 3, 16)             5504      
                                                                 
 flatten_17 (Flatten)        (None, 48)                0         
                                                                 
 dropout_21 (Dropout)        (None, 48)                0         
                                                                 
 dense_40 (Dense)            (None, 1)                 49        
                                                                 
 reshape_23 (Reshape)        (None, 1, 1)              0         
                                                                 
=================================================================
Total params: 5,553
Trainable params: 5,553
Non-trainable params: 0
_________________________________________________________________",0.039276123046875,5553.0,0.0
