…
0553', '4260705920560', '4260705920577', '4260705920584', '4260705920591', '4260705920607', '4260705920638', 'total_quantity_day', 'DayoftheMonth_cos', 'DayoftheMonth_sin', 'WeekoftheMonth_cos', 'WeekoftheMonth_sin', 'DayoftheWeek_cos', 'DayoftheWeek_sin']","(187,)/(51,)/(25,)",32,100,0.001,Adam,True,False,3,1,1,4260705920294,0.9875323193916852,"Model: ""sequential_20""
_________________________________________________________________
 Layer (type)                Output Shape              Param #   
=================================================================
 flatten_14 (Flatten)        (None, 207)               0         
                                                                 
 dense_31 (Dense)            (None, 64)                13312     
                                                                 
 dense_32 (Dense)            (None, 64)                4160      
                                                                 
 dropout_13 (Dropout)        (None, 64)                0         
                                                                 
 dense_33 (Dense)            (None, 1)                 65        
                                                                 
 reshape_20 (Reshape)        (None, 1, 1)              0         
                                                                 
=================================================================
Total params: 17,537
Trainable params: 17,537
Non-trainable params: 0
_________________________________________________________________",70.0703125,17537.0,0.0,14.0,4.0
3,Multi Step Dense,0.9793201088905334,0.7391743659973145,0.9002559781074524,0.84689313173
…
0553', '4260705920560', '4260705920577', '4260705920584', '4260705920591', '4260705920607', '4260705920638', 'total_quantity_day', 'DayoftheMonth_cos', 'DayoftheMonth_sin', 'WeekoftheMonth_cos', 'WeekoftheMonth_sin', 'DayoftheWeek_cos', 'DayoftheWeek_sin']","(187,)/(51,)/(25,)",32,100,0.001,Adam,True,False,3,1,1,4260705920294,0.9777034220530261,"Model: ""sequential_21""
_________________________________________________________________
 Layer (type)                Output Shape              Param #   
=================================================================
 flatten_15 (Flatten)        (None, 207)               0         
                                                                 
 dense_34 (Dense)            (None, 32)                6656      
                                                                 
 dropout_14 (Dropout)        (None, 32)                0         
                                                                 
 dense_35 (Dense)            (None, 32)                1056      
                                                                 
 dropout_15 (Dropout)        (None, 32)                0         
                                                                 
 dense_36 (Dense)            (None, 1)                 33        
                                                                 
 reshape_21 (Reshape)        (None, 1, 1)              0         
                                                                 
=================================================================
Total params: 7,745
Trainable params: 7,745
Non-trainable params: 0
_________________________________________________________________",31.5703125,7745.0,0.0,17.0,11.0
4,Convolutional,0.4669067859649658,0.6659794449806213,0.7973927855491638,0.5736268162727356
…
0553', '4260705920560', '4260705920577', '4260705920584', '4260705920591', '4260705920607', '4260705920638', 'total_quantity_day', 'DayoftheMonth_cos', 'DayoftheMonth_sin', 'WeekoftheMonth_cos', 'WeekoftheMonth_sin', 'DayoftheWeek_cos', 'DayoftheWeek_sin']","(187,)/(51,)/(25,)",32,100,0.001,Adam,True,False,3,1,1,4260705920294,0.9978326996197522,"Model: ""sequential_22""
_________________________________________________________________
 Layer (type)                Output Shape              Param #   
=================================================================
 conv1d_3 (Conv1D)           (None, 2, 16)             2224      
                                                                 
 flatten_16 (Flatten)        (None, 32)                0         
                                                                 
 dense_37 (Dense)            (None, 32)                1056      
                                                                 
 dropout_16 (Dropout)        (None, 32)                0         
                                                                 
 dense_38 (Dense)            (None, 1)                 33        
                                                                 
 reshape_22 (Reshape)        (None, 1, 1)              0         
                                                                 
=================================================================
Total params: 3,313
Trainable params: 3,313
Non-trainable params: 0
_________________________________________________________________",13.44921875,3313.0,0.0,12.0,10.0
5,RNN,0.6429294347763062,0.6116563677787781,1.037010669708252,0.6681436896324158,0.6154674
…
0553', '4260705920560', '4260705920577', '4260705920584', '4260705920591', '4260705920607', '4260705920638', 'total_quantity_day', 'DayoftheMonth_cos', 'DayoftheMonth_sin', 'WeekoftheMonth_cos', 'WeekoftheMonth_sin', 'DayoftheWeek_cos', 'DayoftheWeek_sin']","(187,)/(51,)/(25,)",32,100,0.001,Adam,True,False,3,1,1,4260705920294,1.0756920152092124,"Model: ""sequential_23""
_________________________________________________________________
 Layer (type)                Output Shape              Param #   
=================================================================
 lstm_7 (LSTM)               (None, 3, 16)             5504      
                                                                 
 flatten_17 (Flatten)        (None, 48)                0         
                                                                 
 dropout_17 (Dropout)        (None, 48)                0         
                                                                 
 dense_39 (Dense)            (None, 1)                 49        
                                                                 
 reshape_23 (Reshape)        (None, 1, 1)              0         
                                                                 
=================================================================
Total params: 5,553
Trainable params: 5,553
Non-trainable params: 0
_________________________________________________________________",22.26171875,5553.0,0.0,14.0,10.0
