…
state', 'isWeekend', 'isWeekStart', 'isWeekEnd', 'isMonthStart', 'isMonthEnd', 'isHoliday', '4260705920294', 'total_quantity_day', 'DayoftheMonth_cos', 'DayoftheMonth_sin', 'WeekoftheMonth_cos', 'WeekoftheMonth_sin', 'DayoftheWeek_cos', 'DayoftheWeek_sin']","(187,)/(51,)/(25,)",32,100,0.001,Adam,True,False,3,1,1,4260705920294,1.0074220532319158,"Model: ""sequential_25""
_________________________________________________________________
 Layer (type)                Output Shape              Param #   
=================================================================
 flatten_19 (Flatten)        (None, 96)                0         
                                                                 
 dense_41 (Dense)            (None, 64)                6208      
                                                                 
 dense_42 (Dense)            (None, 64)                4160      
                                                                 
 dropout_18 (Dropout)        (None, 64)                0         
                                                                 
 dense_43 (Dense)            (None, 1)                 65        
                                                                 
 reshape_25 (Reshape)        (None, 1, 1)              0         
                                                                 
=================================================================
Total params: 10,433
Trainable params: 10,433
Non-trainable params: 0
_________________________________________________________________",41.88671875,10433.0,0.0,10.0,6.0
3,Multi Step Dense,0.9834356307983398,0.6376007199287415,0.7614659667015076,0.8203529715
…
state', 'isWeekend', 'isWeekStart', 'isWeekEnd', 'isMonthStart', 'isMonthEnd', 'isHoliday', '4260705920294', 'total_quantity_day', 'DayoftheMonth_cos', 'DayoftheMonth_sin', 'WeekoftheMonth_cos', 'WeekoftheMonth_sin', 'DayoftheWeek_cos', 'DayoftheWeek_sin']","(187,)/(51,)/(25,)",32,100,0.001,Adam,True,False,3,1,1,4260705920294,0.9830988593155939,"Model: ""sequential_26""
_________________________________________________________________
 Layer (type)                Output Shape              Param #   
=================================================================
 flatten_20 (Flatten)        (None, 96)                0         
                                                                 
 dense_44 (Dense)            (None, 32)                3104      
                                                                 
 dropout_19 (Dropout)        (None, 32)                0         
                                                                 
 dense_45 (Dense)            (None, 32)                1056      
                                                                 
 dropout_20 (Dropout)        (None, 32)                0         
                                                                 
 dense_46 (Dense)            (None, 1)                 33        
                                                                 
 reshape_26 (Reshape)        (None, 1, 1)              0         
                                                                 
=================================================================
Total params: 4,193
Trainable params: 4,193
Non-trainable params: 0
_________________________________________________________________",17.26171875,4193.0,0.0,17.0,11.0
4,Convolutional,0.5204840898513794,1.0225403308868408,0.8869710564613342,0.596274018287658
…
state', 'isWeekend', 'isWeekStart', 'isWeekEnd', 'isMonthStart', 'isMonthEnd', 'isHoliday', '4260705920294', 'total_quantity_day', 'DayoftheMonth_cos', 'DayoftheMonth_sin', 'WeekoftheMonth_cos', 'WeekoftheMonth_sin', 'DayoftheWeek_cos', 'DayoftheWeek_sin']","(187,)/(51,)/(25,)",32,100,0.001,Adam,True,False,3,1,1,4260705920294,0.9728060836502452,"Model: ""sequential_27""
_________________________________________________________________
 Layer (type)                Output Shape              Param #   
=================================================================
 conv1d_4 (Conv1D)           (None, 2, 16)             1040      
                                                                 
 flatten_21 (Flatten)        (None, 32)                0         
                                                                 
 dense_47 (Dense)            (None, 32)                1056      
                                                                 
 dropout_21 (Dropout)        (None, 32)                0         
                                                                 
 dense_48 (Dense)            (None, 1)                 33        
                                                                 
 reshape_27 (Reshape)        (None, 1, 1)              0         
                                                                 
=================================================================
Total params: 2,129
Trainable params: 2,129
Non-trainable params: 0
_________________________________________________________________",8.82421875,2129.0,0.0,13.0,10.0
5,RNN,0.7464654445648193,0.7193202376365662,1.0461187362670898,0.721010684967041,0.63480752
…
state', 'isWeekend', 'isWeekStart', 'isWeekEnd', 'isMonthStart', 'isMonthEnd', 'isHoliday', '4260705920294', 'total_quantity_day', 'DayoftheMonth_cos', 'DayoftheMonth_sin', 'WeekoftheMonth_cos', 'WeekoftheMonth_sin', 'DayoftheWeek_cos', 'DayoftheWeek_sin']","(187,)/(51,)/(25,)",32,100,0.001,Adam,True,False,3,1,1,4260705920294,1.0130646387832654,"Model: ""sequential_28""
_________________________________________________________________
 Layer (type)                Output Shape              Param #   
=================================================================
 lstm_8 (LSTM)               (None, 3, 16)             3136      
                                                                 
 flatten_22 (Flatten)        (None, 48)                0         
                                                                 
 dropout_22 (Dropout)        (None, 48)                0         
                                                                 
 dense_49 (Dense)            (None, 1)                 49        
                                                                 
 reshape_28 (Reshape)        (None, 1, 1)              0         
                                                                 
=================================================================
Total params: 3,185
Trainable params: 3,185
Non-trainable params: 0
_________________________________________________________________",13.01171875,3185.0,0.0,16.0,10.0
