…
 '4260705920553',
 '4260705920560',
 '4260705920577',
 '4260705920584',
 '4260705920591',
 '4260705920607',
 '4260705920638',
 'total_quantity_day',
 'DayoftheMonth_cos',
 'DayoftheMonth_sin',
 'WeekoftheMonth_cos',
 'WeekoftheMonth_sin',
 'DayoftheWeek_cos',
 'DayoftheWeek_sin']",187/51/25,32,100,0.001,Adam,True,False,3,1,1,4260705920294,0.8045893536121702,"Model: ""sequential_1""
_________________________________________________________________
 Layer (type)                Output Shape              Param #
=================================================================
 flatten_1 (Flatten)         (None, 261)               0

 dense_1 (Dense)             (None, 64)                16768

 dropout (Dropout)           (None, 64)                0

 dense_2 (Dense)             (None, 64)                4160

 dropout_1 (Dropout)         (None, 64)                0

 dense_3 (Dense)             (None, 1)                 65

 reshape_1 (Reshape)         (None, 1, 1)              0

=================================================================
Total params: 20,993
Trainable params: 20,993
Non-trainable params: 0
_________________________________________________________________",0.09979248046875,20993,0.0
3,Multi Step Dense,0.8053513765335083,0.6968623995780945,0.7161816358566284,0.9944850206375122,0.8358635306358337,0.7905594706535339,SingleOutput,./../Data/merged_cleaned_FE_imputed(v)_w.csv,"['temperature_2m_max',
…
 '4260705920553',
 '4260705920560',
 '4260705920577',
 '4260705920584',
 '4260705920591',
 '4260705920607',
 '4260705920638',
 'total_quantity_day',
 'DayoftheMonth_cos',
 'DayoftheMonth_sin',
 'WeekoftheMonth_cos',
 'WeekoftheMonth_sin',
 'DayoftheWeek_cos',
 'DayoftheWeek_sin']",187/51/25,32,100,0.001,Adam,True,False,3,1,1,4260705920294,0.7770532319391471,"Model: ""sequential_2""
_________________________________________________________________
 Layer (type)                Output Shape              Param #
=================================================================
 flatten_2 (Flatten)         (None, 261)               0

 dense_4 (Dense)             (None, 32)                8384

 dropout_2 (Dropout)         (None, 32)                0

 dense_5 (Dense)             (None, 32)                1056

 dropout_3 (Dropout)         (None, 32)                0

 dense_6 (Dense)             (None, 1)                 33

 reshape_2 (Reshape)         (None, 1, 1)              0

=================================================================
Total params: 9,473
Trainable params: 9,473
Non-trainable params: 0
_________________________________________________________________",0.0561370849609375,9473,0.0
4,Convolutional,4.4997523218626156e-05,1.1865530014038086,1.8633610010147095,1.6375444999994215e-08,2.4740850925445557,5.107874870300293,SingleOutput,./../Data/merged_cleaned_FE_imputed(v)_w.csv,"['temperature_2m_max',
…
 '4260705920553',
 '4260705920560',
 '4260705920577',
 '4260705920584',
 '4260705920591',
 '4260705920607',
 '4260705920638',
 'total_quantity_day',
 'DayoftheMonth_cos',
 'DayoftheMonth_sin',
 'WeekoftheMonth_cos',
 'WeekoftheMonth_sin',
 'DayoftheWeek_cos',
 'DayoftheWeek_sin']",187/51/25,32,100,0.001,Adam,True,False,3,1,1,4260705920294,0.8139163498098991,"Model: ""sequential_3""
_________________________________________________________________
 Layer (type)                Output Shape              Param #
=================================================================
 conv1d (Conv1D)             (None, 2, 32)             5600

 flatten_3 (Flatten)         (None, 64)                0

 dense_7 (Dense)             (None, 32)                2080

 dense_8 (Dense)             (None, 1)                 33

 reshape_3 (Reshape)         (None, 1, 1)              0

=================================================================
Total params: 7,713
Trainable params: 7,713
Non-trainable params: 0
_________________________________________________________________",0.04779052734375,7713,0.0
5,RNN,0.0013985417317599058,0.959480881690979,0.7305817604064941,9.786646842258051e-06,1.4202321767807007,0.8197745680809021,SingleOutput,./../Data/merged_cleaned_FE_imputed(v)_w.csv,"['temperature_2m_max',
…
