…
920553', '4260705920560', '4260705920577', '4260705920584', '4260705920591', '4260705920607', '4260705920638', 'total_quantity_day', 'DayoftheMonth_cos', 'DayoftheMonth_sin', 'WeekoftheMonth_cos', 'WeekoftheMonth_sin', 'DayoftheWeek_cos', 'DayoftheWeek_sin']","(187,)/(51,)/(25,)",32,100,0.001,Adam,True,False,3,1,1,4260705920294,0.959479087452457,"Model: ""sequential_1""
_________________________________________________________________
 Layer (type)                Output Shape              Param #   
=================================================================
 flatten_1 (Flatten)         (None, 261)               0         
                                                                 
 dense_1 (Dense)             (None, 64)                16768     
                                                                 
 dense_2 (Dense)             (None, 64)                4160      
                                                                 
 dropout (Dropout)           (None, 64)                0         
                                                                 
 dense_3 (Dense)             (None, 1)                 65        
                                                                 
 reshape_1 (Reshape)         (None, 1, 1)              0         
                                                                 
=================================================================
Total params: 20,993
Trainable params: 20,993
Non-trainable params: 0
_________________________________________________________________",83.78125,20993.0,0.0,12.0,6.0
3,Multi Step Dense,0.9739159345626831,0.9644393920898438,0.7817614674568176,0.8087071180343
…
20553', '4260705920560', '4260705920577', '4260705920584', '4260705920591', '4260705920607', '4260705920638', 'total_quantity_day', 'DayoftheMonth_cos', 'DayoftheMonth_sin', 'WeekoftheMonth_cos', 'WeekoftheMonth_sin', 'DayoftheWeek_cos', 'DayoftheWeek_sin']","(187,)/(51,)/(25,)",32,100,0.001,Adam,True,False,3,1,1,4260705920294,0.9959847908745237,"Model: ""sequential_2""
_________________________________________________________________
 Layer (type)                Output Shape              Param #   
=================================================================
 flatten_2 (Flatten)         (None, 261)               0         
                                                                 
 dense_4 (Dense)             (None, 32)                8384      
                                                                 
 dropout_1 (Dropout)         (None, 32)                0         
                                                                 
 dense_5 (Dense)             (None, 32)                1056      
                                                                 
 dropout_2 (Dropout)         (None, 32)                0         
                                                                 
 dense_6 (Dense)             (None, 1)                 33        
                                                                 
 reshape_2 (Reshape)         (None, 1, 1)              0         
                                                                 
=================================================================
Total params: 9,473
Trainable params: 9,473
Non-trainable params: 0
_________________________________________________________________",38.53125,9473.0,0.0,18.0,11.0
4,Convolutional,0.40765613317489624,0.8764488101005554,1.1020927429199219,0.5247957110404968,
…
920553', '4260705920560', '4260705920577', '4260705920584', '4260705920591', '4260705920607', '4260705920638', 'total_quantity_day', 'DayoftheMonth_cos', 'DayoftheMonth_sin', 'WeekoftheMonth_cos', 'WeekoftheMonth_sin', 'DayoftheWeek_cos', 'DayoftheWeek_sin']","(187,)/(51,)/(25,)",32,100,0.001,Adam,True,False,3,1,1,4260705920294,1.015197718631165,"Model: ""sequential_3""
_________________________________________________________________
 Layer (type)                Output Shape              Param #   
=================================================================
 conv1d (Conv1D)             (None, 2, 16)             2800      
                                                                 
 flatten_3 (Flatten)         (None, 32)                0         
                                                                 
 dense_7 (Dense)             (None, 32)                1056      
                                                                 
 dropout_3 (Dropout)         (None, 32)                0         
                                                                 
 dense_8 (Dense)             (None, 1)                 33        
                                                                 
 reshape_3 (Reshape)         (None, 1, 1)              0         
                                                                 
=================================================================
Total params: 3,889
Trainable params: 3,889
Non-trainable params: 0
_________________________________________________________________",15.69921875,3889.0,0.0,11.0,10.0
5,RNN,0.6035088300704956,0.7630727291107178,0.8133209943771362,0.6451794505119324,0.659801
…
20553', '4260705920560', '4260705920577', '4260705920584', '4260705920591', '4260705920607', '4260705920638', 'total_quantity_day', 'DayoftheMonth_cos', 'DayoftheMonth_sin', 'WeekoftheMonth_cos', 'WeekoftheMonth_sin', 'DayoftheWeek_cos', 'DayoftheWeek_sin']","(187,)/(51,)/(25,)",32,100,0.001,Adam,True,False,3,1,1,4260705920294,0.9982319391634971,"Model: ""sequential_4""
_________________________________________________________________
 Layer (type)                Output Shape              Param #   
=================================================================
 lstm (LSTM)                 (None, 3, 16)             6656      
                                                                 
 flatten_4 (Flatten)         (None, 48)                0         
                                                                 
 dropout_4 (Dropout)         (None, 48)                0         
                                                                 
 dense_9 (Dense)             (None, 1)                 49        
                                                                 
 reshape_4 (Reshape)         (None, 1, 1)              0         
                                                                 
=================================================================
Total params: 6,705
Trainable params: 6,705
Non-trainable params: 0
_________________________________________________________________",26.76171875,6705.0,0.0,14.0,10.0
