…
changed sky state', 'isWeekend', 'isWeekStart', 'isWeekEnd', 'isMonthStart', 'isMonthEnd', 'isHoliday', '4260705920294', 'total_quantity_day', 'DayoftheMonth_cos', 'DayoftheMonth_sin', 'WeekoftheMonth_cos', 'WeekoftheMonth_sin', 'DayoftheWeek_cos', 'DayoftheWeek_sin']",187/51/25,32,100,0.001,Adam,True,False,3,1,1,4260705920294,0.8610380228136857,"Model: ""sequential_1""
_________________________________________________________________
 Layer (type)                Output Shape              Param #   
=================================================================
 flatten_1 (Flatten)         (None, 96)                0         
                                                                 
 dense_1 (Dense)             (None, 64)                6208      
                                                                 
 dropout (Dropout)           (None, 64)                0         
                                                                 
 dense_2 (Dense)             (None, 64)                4160      
                                                                 
 dropout_1 (Dropout)         (None, 64)                0         
                                                                 
 dense_3 (Dense)             (None, 1)                 65        
                                                                 
 reshape_1 (Reshape)         (None, 1, 1)              0         
                                                                 
=================================================================
Total params: 10,433
Trainable params: 10,433
Non-trainable params: 0
_________________________________________________________________",0.05950927734375,10433.0,0.0
3,Multi Step Dense,0.8161770701408386,0.6688705086708069,0.6651559472084045,0.97599148750305
…
changed sky state', 'isWeekend', 'isWeekStart', 'isWeekEnd', 'isMonthStart', 'isMonthEnd', 'isHoliday', '4260705920294', 'total_quantity_day', 'DayoftheMonth_cos', 'DayoftheMonth_sin', 'WeekoftheMonth_cos', 'WeekoftheMonth_sin', 'DayoftheWeek_cos', 'DayoftheWeek_sin']",187/51/25,32,100,0.001,Adam,True,False,3,1,1,4260705920294,0.8275361216730228,"Model: ""sequential_2""
_________________________________________________________________
 Layer (type)                Output Shape              Param #   
=================================================================
 flatten_2 (Flatten)         (None, 96)                0         
                                                                 
 dense_4 (Dense)             (None, 32)                3104      
                                                                 
 dropout_2 (Dropout)         (None, 32)                0         
                                                                 
 dense_5 (Dense)             (None, 32)                1056      
                                                                 
 dropout_3 (Dropout)         (None, 32)                0         
                                                                 
 dense_6 (Dense)             (None, 1)                 33        
                                                                 
 reshape_2 (Reshape)         (None, 1, 1)              0         
                                                                 
=================================================================
Total params: 4,193
Trainable params: 4,193
Non-trainable params: 0
_________________________________________________________________",0.0359954833984375,4193.0,0.0
4,Convolutional,0.6393188834190369,0.6282739043235779,0.7400243282318115,0.6155356168746948,0
…
changed sky state', 'isWeekend', 'isWeekStart', 'isWeekEnd', 'isMonthStart', 'isMonthEnd', 'isHoliday', '4260705920294', 'total_quantity_day', 'DayoftheMonth_cos', 'DayoftheMonth_sin', 'WeekoftheMonth_cos', 'WeekoftheMonth_sin', 'DayoftheWeek_cos', 'DayoftheWeek_sin']",187/51/25,32,100,0.001,Adam,True,False,3,1,1,4260705920294,0.8521863117870212,"Model: ""sequential_3""
_________________________________________________________________
 Layer (type)                Output Shape              Param #   
=================================================================
 conv1d (Conv1D)             (None, 2, 16)             1040      
                                                                 
 flatten_3 (Flatten)         (None, 32)                0         
                                                                 
 dense_7 (Dense)             (None, 32)                1056      
                                                                 
 dropout_4 (Dropout)         (None, 32)                0         
                                                                 
 dense_8 (Dense)             (None, 1)                 33        
                                                                 
 reshape_3 (Reshape)         (None, 1, 1)              0         
                                                                 
=================================================================
Total params: 2,129
Trainable params: 2,129
Non-trainable params: 0
_________________________________________________________________",0.0274505615234375,2129.0,0.0
5,RNN,0.716458261013031,0.6329548358917236,0.8382006883621216,0.7421672344207764,0.6513571739
…
changed sky state', 'isWeekend', 'isWeekStart', 'isWeekEnd', 'isMonthStart', 'isMonthEnd', 'isHoliday', '4260705920294', 'total_quantity_day', 'DayoftheMonth_cos', 'DayoftheMonth_sin', 'WeekoftheMonth_cos', 'WeekoftheMonth_sin', 'DayoftheWeek_cos', 'DayoftheWeek_sin']",187/51/25,32,100,0.001,Adam,True,False,3,1,1,4260705920294,0.9311558935361299,"Model: ""sequential_4""
_________________________________________________________________
 Layer (type)                Output Shape              Param #   
=================================================================
 lstm (LSTM)                 (None, 3, 16)             3136      
                                                                 
 flatten_4 (Flatten)         (None, 48)                0         
                                                                 
 dropout_5 (Dropout)         (None, 48)                0         
                                                                 
 dense_9 (Dense)             (None, 1)                 49        
                                                                 
 reshape_4 (Reshape)         (None, 1, 1)              0         
                                                                 
=================================================================
Total params: 3,185
Trainable params: 3,185
Non-trainable params: 0
_________________________________________________________________",0.03000640869140625,3185.0,0.0
