…
, '4260705920553', '4260705920560', '4260705920577', '4260705920584', '4260705920591', '4260705920607', '4260705920638', 'total_quantity_day', 'DayoftheMonth_cos', 'DayoftheMonth_sin', 'WeekoftheMonth_cos', 'WeekoftheMonth_sin', 'DayoftheWeek_cos', 'DayoftheWeek_sin']",187/51/25,32,100,0.001,Adam,True,False,3,1,1,4260705920294,0.7502813688212997,"Model: ""sequential_1""
_________________________________________________________________
 Layer (type)                Output Shape              Param #   
=================================================================
 flatten_1 (Flatten)         (None, 261)               0         
                                                                 
 dense_1 (Dense)             (None, 64)                16768     
                                                                 
 dropout (Dropout)           (None, 64)                0         
                                                                 
 dense_2 (Dense)             (None, 64)                4160      
                                                                 
 dropout_1 (Dropout)         (None, 64)                0         
                                                                 
 dense_3 (Dense)             (None, 1)                 65        
                                                                 
 reshape_1 (Reshape)         (None, 1, 1)              0         
                                                                 
=================================================================
Total params: 20,993
Trainable params: 20,993
Non-trainable params: 0
_________________________________________________________________",0.09979248046875,20993.0,0.0
3,Multi Step Dense,0.9833194613456726,0.7220298051834106,0.8666010499000549,0.82000929117202
…
, '4260705920553', '4260705920560', '4260705920577', '4260705920584', '4260705920591', '4260705920607', '4260705920638', 'total_quantity_day', 'DayoftheMonth_cos', 'DayoftheMonth_sin', 'WeekoftheMonth_cos', 'WeekoftheMonth_sin', 'DayoftheWeek_cos', 'DayoftheWeek_sin']",187/51/25,32,100,0.001,Adam,True,False,3,1,1,4260705920294,0.7937794676805896,"Model: ""sequential_2""
_________________________________________________________________
 Layer (type)                Output Shape              Param #   
=================================================================
 flatten_2 (Flatten)         (None, 261)               0         
                                                                 
 dense_4 (Dense)             (None, 32)                8384      
                                                                 
 dropout_2 (Dropout)         (None, 32)                0         
                                                                 
 dense_5 (Dense)             (None, 32)                1056      
                                                                 
 dropout_3 (Dropout)         (None, 32)                0         
                                                                 
 dense_6 (Dense)             (None, 1)                 33        
                                                                 
 reshape_2 (Reshape)         (None, 1, 1)              0         
                                                                 
=================================================================
Total params: 9,473
Trainable params: 9,473
Non-trainable params: 0
_________________________________________________________________",0.0561370849609375,9473.0,0.0
4,Convolutional,0.40216144919395447,1.0478532314300537,1.4584466218948364,0.5189071297645569,
…
, '4260705920553', '4260705920560', '4260705920577', '4260705920584', '4260705920591', '4260705920607', '4260705920638', 'total_quantity_day', 'DayoftheMonth_cos', 'DayoftheMonth_sin', 'WeekoftheMonth_cos', 'WeekoftheMonth_sin', 'DayoftheWeek_cos', 'DayoftheWeek_sin']",187/51/25,32,100,0.001,Adam,True,False,3,1,1,4260705920294,1.0387300380228506,"Model: ""sequential_3""
_________________________________________________________________
 Layer (type)                Output Shape              Param #   
=================================================================
 conv1d (Conv1D)             (None, 2, 16)             2800      
                                                                 
 flatten_3 (Flatten)         (None, 32)                0         
                                                                 
 dense_7 (Dense)             (None, 32)                1056      
                                                                 
 dropout_4 (Dropout)         (None, 32)                0         
                                                                 
 dense_8 (Dense)             (None, 1)                 33        
                                                                 
 reshape_3 (Reshape)         (None, 1, 1)              0         
                                                                 
=================================================================
Total params: 3,889
Trainable params: 3,889
Non-trainable params: 0
_________________________________________________________________",0.0341644287109375,3889.0,0.0
5,RNN,0.5822781324386597,0.6114988923072815,0.6570549607276917,0.6333534717559814,0.606139361
…
', '4260705920553', '4260705920560', '4260705920577', '4260705920584', '4260705920591', '4260705920607', '4260705920638', 'total_quantity_day', 'DayoftheMonth_cos', 'DayoftheMonth_sin', 'WeekoftheMonth_cos', 'WeekoftheMonth_sin', 'DayoftheWeek_cos', 'DayoftheWeek_sin']",187/51/25,32,100,0.001,Adam,True,False,3,1,1,4260705920294,1.043973384030401,"Model: ""sequential_4""
_________________________________________________________________
 Layer (type)                Output Shape              Param #   
=================================================================
 lstm (LSTM)                 (None, 3, 16)             6656      
                                                                 
 flatten_4 (Flatten)         (None, 48)                0         
                                                                 
 dropout_5 (Dropout)         (None, 48)                0         
                                                                 
 dense_9 (Dense)             (None, 1)                 49        
                                                                 
 reshape_4 (Reshape)         (None, 1, 1)              0         
                                                                 
=================================================================
Total params: 6,705
Trainable params: 6,705
Non-trainable params: 0
_________________________________________________________________",0.04343414306640625,6705.0,0.0
