…
553', '4260705920560', '4260705920577', '4260705920584', '4260705920591', '4260705920607', '4260705920638', 'total_quantity_day', 'DayoftheMonth_cos', 'DayoftheMonth_sin', 'WeekoftheMonth_cos', 'WeekoftheMonth_sin', 'DayoftheWeek_cos', 'DayoftheWeek_sin']","(187,)/(51,)/(25,)",32,100,0.001,Adam,True,False,3,1,1,4260705920294,1.3581787072235911,"Model: ""sequential_149""
_________________________________________________________________
 Layer (type)                Output Shape              Param #   
=================================================================
 conv1d_26 (Conv1D)          (None, 2, 16)             2224      
                                                                 
 flatten_107 (Flatten)       (None, 32)                0         
                                                                 
 dense_247 (Dense)           (None, 32)                1056      
                                                                 
 dropout_107 (Dropout)       (None, 32)                0         
                                                                 
 dense_248 (Dense)           (None, 1)                 33        
                                                                 
 reshape_149 (Reshape)       (None, 1, 1)              0         
                                                                 
=================================================================
Total params: 3,313
Trainable params: 3,313
Non-trainable params: 0
_________________________________________________________________",13.44921875,3313.0,0.0,14.0,9.0
