…
tate', 'isWeekend', 'isWeekStart', 'isWeekEnd', 'isMonthStart', 'isMonthEnd', 'isHoliday', '4260705920294', 'total_quantity_day', 'DayoftheMonth_cos', 'DayoftheMonth_sin', 'WeekoftheMonth_cos', 'WeekoftheMonth_sin', 'DayoftheWeek_cos', 'DayoftheWeek_sin']","(187,)/(51,)/(25,)",32,100,0.001,Adam,True,False,3,1,1,4260705920294,1.2851939163504855,"Model: ""sequential_172""
_________________________________________________________________
 Layer (type)                Output Shape              Param #   
=================================================================
 flatten_130 (Flatten)       (None, 96)                0         
                                                                 
 dense_291 (Dense)           (None, 64)                6208      
                                                                 
 dense_292 (Dense)           (None, 64)                4160      
                                                                 
 dropout_129 (Dropout)       (None, 64)                0         
                                                                 
 dense_293 (Dense)           (None, 1)                 65        
                                                                 
 reshape_172 (Reshape)       (None, 1, 1)              0         
                                                                 
=================================================================
Total params: 10,433
Trainable params: 10,433
Non-trainable params: 0
_________________________________________________________________",41.88671875,10433.0,0.0,10.0,6.0
