…
state', 'isWeekend', 'isWeekStart', 'isWeekEnd', 'isMonthStart', 'isMonthEnd', 'isHoliday', '4260705920294', 'total_quantity_day', 'DayoftheMonth_cos', 'DayoftheMonth_sin', 'WeekoftheMonth_cos', 'WeekoftheMonth_sin', 'DayoftheWeek_cos', 'DayoftheWeek_sin']","(187,)/(51,)/(25,)",32,100,0.001,Adam,True,False,3,1,1,4260705920294,1.289505703422217,"Model: ""sequential_178""
_________________________________________________________________
 Layer (type)                Output Shape              Param #   
=================================================================
 flatten_136 (Flatten)       (None, 96)                0         
                                                                 
 dense_304 (Dense)           (None, 32)                3104      
                                                                 
 dropout_135 (Dropout)       (None, 32)                0         
                                                                 
 dense_305 (Dense)           (None, 32)                1056      
                                                                 
 dropout_136 (Dropout)       (None, 32)                0         
                                                                 
 dense_306 (Dense)           (None, 1)                 33        
                                                                 
 reshape_178 (Reshape)       (None, 1, 1)              0         
                                                                 
=================================================================
Total params: 4,193
Trainable params: 4,193
Non-trainable params: 0
_________________________________________________________________",17.26171875,4193.0,0.0,17.0,11.0
