…
0553', '4260705920560', '4260705920577', '4260705920584', '4260705920591', '4260705920607', '4260705920638', 'total_quantity_day', 'DayoftheMonth_cos', 'DayoftheMonth_sin', 'WeekoftheMonth_cos', 'WeekoftheMonth_sin', 'DayoftheWeek_cos', 'DayoftheWeek_sin']","(187,)/(51,)/(25,)",32,100,0.001,Adam,True,False,3,1,1,4260705920294,1.249961977186892,"Model: ""sequential_143""
_________________________________________________________________
 Layer (type)                Output Shape              Param #   
=================================================================
 flatten_101 (Flatten)       (None, 207)               0         
                                                                 
 dense_234 (Dense)           (None, 32)                6656      
                                                                 
 dropout_100 (Dropout)       (None, 32)                0         
                                                                 
 dense_235 (Dense)           (None, 32)                1056      
                                                                 
 dropout_101 (Dropout)       (None, 32)                0         
                                                                 
 dense_236 (Dense)           (None, 1)                 33        
                                                                 
 reshape_143 (Reshape)       (None, 1, 1)              0         
                                                                 
=================================================================
Total params: 7,745
Trainable params: 7,745
Non-trainable params: 0
_________________________________________________________________",31.5703125,7745.0,0.0,17.0,11.0
