…
553', '4260705920560', '4260705920577', '4260705920584', '4260705920591', '4260705920607', '4260705920638', 'total_quantity_day', 'DayoftheMonth_cos', 'DayoftheMonth_sin', 'WeekoftheMonth_cos', 'WeekoftheMonth_sin', 'DayoftheWeek_cos', 'DayoftheWeek_sin']","(187,)/(51,)/(25,)",32,100,0.001,Adam,True,False,3,1,1,4260705920294,1.3072433460075088,"Model: ""sequential_137""
_________________________________________________________________
 Layer (type)                Output Shape              Param #   
=================================================================
 flatten_95 (Flatten)        (None, 207)               0         
                                                                 
 dense_221 (Dense)           (None, 64)                13312     
                                                                 
 dense_222 (Dense)           (None, 64)                4160      
                                                                 
 dropout_94 (Dropout)        (None, 64)                0         
                                                                 
 dense_223 (Dense)           (None, 1)                 65        
                                                                 
 reshape_137 (Reshape)       (None, 1, 1)              0         
                                                                 
=================================================================
Total params: 17,537
Trainable params: 17,537
Non-trainable params: 0
_________________________________________________________________",70.0703125,17537.0,0.0,9.0,6.0
