…
tate', 'isWeekend', 'isWeekStart', 'isWeekEnd', 'isMonthStart', 'isMonthEnd', 'isHoliday', '4260705920294', 'total_quantity_day', 'DayoftheMonth_cos', 'DayoftheMonth_sin', 'WeekoftheMonth_cos', 'WeekoftheMonth_sin', 'DayoftheWeek_cos', 'DayoftheWeek_sin']","(183,)/(47,)/(21,)",32,100,0.001,Adam,True,False,7,1,1,4260705920294,1.2311075697218177,"Model: ""sequential_219""
_________________________________________________________________
 Layer (type)                Output Shape              Param #   
=================================================================
 conv1d_40 (Conv1D)          (None, 6, 16)             1040      
                                                                 
 flatten_177 (Flatten)       (None, 96)                0         
                                                                 
 dense_387 (Dense)           (None, 32)                3104      
                                                                 
 dropout_177 (Dropout)       (None, 32)                0         
                                                                 
 dense_388 (Dense)           (None, 1)                 33        
                                                                 
 reshape_219 (Reshape)       (None, 1, 1)              0         
                                                                 
=================================================================
Total params: 4,177
Trainable params: 4,177
Non-trainable params: 0
_________________________________________________________________",17.32421875,4177.0,0.0,10.0,9.0
