…
tate', 'isWeekend', 'isWeekStart', 'isWeekEnd', 'isMonthStart', 'isMonthEnd', 'isHoliday', '4260705920294', 'total_quantity_day', 'DayoftheMonth_cos', 'DayoftheMonth_sin', 'WeekoftheMonth_cos', 'WeekoftheMonth_sin', 'DayoftheWeek_cos', 'DayoftheWeek_sin']","(187,)/(51,)/(25,)",32,100,0.001,Adam,True,False,3,1,1,4260705920294,1.2001254752840569,"Model: ""sequential_184""
_________________________________________________________________
 Layer (type)                Output Shape              Param #   
=================================================================
 conv1d_33 (Conv1D)          (None, 2, 16)             1040      
                                                                 
 flatten_142 (Flatten)       (None, 32)                0         
                                                                 
 dense_317 (Dense)           (None, 32)                1056      
                                                                 
 dropout_142 (Dropout)       (None, 32)                0         
                                                                 
 dense_318 (Dense)           (None, 1)                 33        
                                                                 
 reshape_184 (Reshape)       (None, 1, 1)              0         
                                                                 
=================================================================
Total params: 2,129
Trainable params: 2,129
Non-trainable params: 0
_________________________________________________________________",8.82421875,2129.0,0.0,13.0,10.0
