…
state', 'isWeekend', 'isWeekStart', 'isWeekEnd', 'isMonthStart', 'isMonthEnd', 'isHoliday', '4260705920294', 'total_quantity_day', 'DayoftheMonth_cos', 'DayoftheMonth_sin', 'WeekoftheMonth_cos', 'WeekoftheMonth_sin', 'DayoftheWeek_cos', 'DayoftheWeek_sin']","(187,)/(51,)/(25,)",32,100,0.001,Adam,True,False,3,1,1,4260705920294,1.0074220532319158,"Model: ""sequential_25""
_________________________________________________________________
 Layer (type)                Output Shape              Param #   
=================================================================
 flatten_19 (Flatten)        (None, 96)                0         
                                                                 
 dense_41 (Dense)            (None, 64)                6208      
                                                                 
 dense_42 (Dense)            (None, 64)                4160      
                                                                 
 dropout_18 (Dropout)        (None, 64)                0         
                                                                 
 dense_43 (Dense)            (None, 1)                 65        
                                                                 
 reshape_25 (Reshape)        (None, 1, 1)              0         
                                                                 
=================================================================
Total params: 10,433
Trainable params: 10,433
Non-trainable params: 0
_________________________________________________________________",41.88671875,10433.0,0.0,10.0,6.0
3,3,SingleOutput-NoIds,Multi Step Dense,0.9834356307983398,0.6376007199287415,0.76146596
…
 state', 'isWeekend', 'isWeekStart', 'isWeekEnd', 'isMonthStart', 'isMonthEnd', 'isHoliday', '4260705920294', 'total_quantity_day', 'DayoftheMonth_cos', 'DayoftheMonth_sin', 'WeekoftheMonth_cos', 'WeekoftheMonth_sin', 'DayoftheWeek_cos', 'DayoftheWeek_sin']","(187,)/(51,)/(25,)",32,100,0.001,Adam,True,False,3,1,1,4260705920294,0.983098859315594,"Model: ""sequential_26""
_________________________________________________________________
 Layer (type)                Output Shape              Param #   
=================================================================
 flatten_20 (Flatten)        (None, 96)                0         
                                                                 
 dense_44 (Dense)            (None, 32)                3104      
                                                                 
 dropout_19 (Dropout)        (None, 32)                0         
                                                                 
 dense_45 (Dense)            (None, 32)                1056      
                                                                 
 dropout_20 (Dropout)        (None, 32)                0         
                                                                 
 dense_46 (Dense)            (None, 1)                 33        
                                                                 
 reshape_26 (Reshape)        (None, 1, 1)              0         
                                                                 
=================================================================
Total params: 4,193
Trainable params: 4,193
Non-trainable params: 0
_________________________________________________________________",17.26171875,4193.0,0.0,17.0,11.0
4,4,SingleOutput-NoIds,Convolutional,0.5204840898513794,1.0225403308868408,0.8869710564613
…
state', 'isWeekend', 'isWeekStart', 'isWeekEnd', 'isMonthStart', 'isMonthEnd', 'isHoliday', '4260705920294', 'total_quantity_day', 'DayoftheMonth_cos', 'DayoftheMonth_sin', 'WeekoftheMonth_cos', 'WeekoftheMonth_sin', 'DayoftheWeek_cos', 'DayoftheWeek_sin']","(187,)/(51,)/(25,)",32,100,0.001,Adam,True,False,3,1,1,4260705920294,0.9728060836502452,"Model: ""sequential_27""
_________________________________________________________________
 Layer (type)                Output Shape              Param #   
=================================================================
 conv1d_4 (Conv1D)           (None, 2, 16)             1040      
                                                                 
 flatten_21 (Flatten)        (None, 32)                0         
                                                                 
 dense_47 (Dense)            (None, 32)                1056      
                                                                 
 dropout_21 (Dropout)        (None, 32)                0         
                                                                 
 dense_48 (Dense)            (None, 1)                 33        
                                                                 
 reshape_27 (Reshape)        (None, 1, 1)              0         
                                                                 
=================================================================
Total params: 2,129
Trainable params: 2,129
Non-trainable params: 0
_________________________________________________________________",8.82421875,2129.0,0.0,13.0,10.0
5,5,SingleOutput-NoIds,RNN,0.7464654445648193,0.7193202376365662,1.0461187362670898,0.72101
…
state', 'isWeekend', 'isWeekStart', 'isWeekEnd', 'isMonthStart', 'isMonthEnd', 'isHoliday', '4260705920294', 'total_quantity_day', 'DayoftheMonth_cos', 'DayoftheMonth_sin', 'WeekoftheMonth_cos', 'WeekoftheMonth_sin', 'DayoftheWeek_cos', 'DayoftheWeek_sin']","(187,)/(51,)/(25,)",32,100,0.001,Adam,True,False,3,1,1,4260705920294,1.0130646387832654,"Model: ""sequential_28""
_________________________________________________________________
 Layer (type)                Output Shape              Param #   
=================================================================
 lstm_8 (LSTM)               (None, 3, 16)             3136      
                                                                 
 flatten_22 (Flatten)        (None, 48)                0         
                                                                 
 dropout_22 (Dropout)        (None, 48)                0         
                                                                 
 dense_49 (Dense)            (None, 1)                 49        
                                                                 
 reshape_28 (Reshape)        (None, 1, 1)              0         
                                                                 
=================================================================
Total params: 3,185
Trainable params: 3,185
Non-trainable params: 0
_________________________________________________________________",13.01171875,3185.0,0.0,16.0,10.0
6,0,MultiOutput-NoWeather,Baseline,1.380704045295715,3.792375087738037,4.616562843322754,0
…
'4260705920553', '4260705920560', '4260705920577', '4260705920584', '4260705920591', '4260705920607', '4260705920638', 'total_quantity_day', 'DayoftheMonth_cos', 'DayoftheMonth_sin', 'WeekoftheMonth_cos', 'WeekoftheMonth_sin', 'DayoftheWeek_cos', 'DayoftheWeek_sin']","(187,)/(51,)/(25,)",32,100,0.001,Adam,True,False,3,1,1,All,0.8995703422054857,"Model: ""sequential_12""
_________________________________________________________________
 Layer (type)                Output Shape              Param #   
=================================================================
 flatten_9 (Flatten)         (None, 207)               0         
                                                                 
 dense_20 (Dense)            (None, 64)                13312     
                                                                 
 dense_21 (Dense)            (None, 64)                4160      
                                                                 
 dropout_9 (Dropout)         (None, 64)                0         
                                                                 
 dense_22 (Dense)            (None, 69)                4485      
                                                                 
 reshape_12 (Reshape)        (None, 1, 69)             0         
                                                                 
=================================================================
Total params: 21,957
Trainable params: 21,957
Non-trainable params: 0
_________________________________________________________________",87.8671875,21957.0,0.0,1.0,1.0
8,2,MultiOutput-NoWeather,RNN,0.7419473528862,2.809901714324951,4.698939323425293,0.484393
…
'4260705920553', '4260705920560', '4260705920577', '4260705920584', '4260705920591', '4260705920607', '4260705920638', 'total_quantity_day', 'DayoftheMonth_cos', 'DayoftheMonth_sin', 'WeekoftheMonth_cos', 'WeekoftheMonth_sin', 'DayoftheWeek_cos', 'DayoftheWeek_sin']","(187,)/(51,)/(25,)",32,100,0.001,Adam,True,False,3,1,1,All,0.9180570342204892,"Model: ""sequential_13""
_________________________________________________________________
 Layer (type)                Output Shape              Param #   
=================================================================
 lstm_4 (LSTM)               (None, 3, 16)             5504      
                                                                 
 flatten_10 (Flatten)        (None, 48)                0         
                                                                 
 dropout_10 (Dropout)        (None, 48)                0         
                                                                 
 dense_23 (Dense)            (None, 69)                3381      
                                                                 
 reshape_13 (Reshape)        (None, 1, 69)             0         
                                                                 
=================================================================
Total params: 8,885
Trainable params: 8,885
Non-trainable params: 0
_________________________________________________________________",35.80859375,8885.0,0.0,1.0,1.0
9,3,MultiOutput-NoWeather,ResidualRNN,1.3085110187530518,4.068966865539551,4.528351783752441
…
920553', '4260705920560', '4260705920577', '4260705920584', '4260705920591', '4260705920607', '4260705920638', 'total_quantity_day', 'DayoftheMonth_cos', 'DayoftheMonth_sin', 'WeekoftheMonth_cos', 'WeekoftheMonth_sin', 'DayoftheWeek_cos', 'DayoftheWeek_sin']","(187,)/(51,)/(25,)",32,100,0.001,Adam,True,False,3,1,1,4260705920294,0.959479087452457,"Model: ""sequential_1""
_________________________________________________________________
 Layer (type)                Output Shape              Param #   
=================================================================
 flatten_1 (Flatten)         (None, 261)               0         
                                                                 
 dense_1 (Dense)             (None, 64)                16768     
                                                                 
 dense_2 (Dense)             (None, 64)                4160      
                                                                 
 dropout (Dropout)           (None, 64)                0         
                                                                 
 dense_3 (Dense)             (None, 1)                 65        
                                                                 
 reshape_1 (Reshape)         (None, 1, 1)              0         
                                                                 
=================================================================
Total params: 20,993
Trainable params: 20,993
Non-trainable params: 0
_________________________________________________________________",83.78125,20993.0,0.0,12.0,6.0
19,3,SingleOutput,Multi Step Dense,0.9739159345626832,0.9644393920898438,0.7817614674568176
…
20553', '4260705920560', '4260705920577', '4260705920584', '4260705920591', '4260705920607', '4260705920638', 'total_quantity_day', 'DayoftheMonth_cos', 'DayoftheMonth_sin', 'WeekoftheMonth_cos', 'WeekoftheMonth_sin', 'DayoftheWeek_cos', 'DayoftheWeek_sin']","(187,)/(51,)/(25,)",32,100,0.001,Adam,True,False,3,1,1,4260705920294,0.9959847908745236,"Model: ""sequential_2""
_________________________________________________________________
 Layer (type)                Output Shape              Param #   
=================================================================
 flatten_2 (Flatten)         (None, 261)               0         
                                                                 
 dense_4 (Dense)             (None, 32)                8384      
                                                                 
 dropout_1 (Dropout)         (None, 32)                0         
                                                                 
 dense_5 (Dense)             (None, 32)                1056      
                                                                 
 dropout_2 (Dropout)         (None, 32)                0         
                                                                 
 dense_6 (Dense)             (None, 1)                 33        
                                                                 
 reshape_2 (Reshape)         (None, 1, 1)              0         
                                                                 
=================================================================
Total params: 9,473
Trainable params: 9,473
Non-trainable params: 0
_________________________________________________________________",38.53125,9473.0,0.0,18.0,11.0
20,4,SingleOutput,Convolutional,0.4076561331748962,0.8764488101005554,1.102092742919922,0.524
…
920553', '4260705920560', '4260705920577', '4260705920584', '4260705920591', '4260705920607', '4260705920638', 'total_quantity_day', 'DayoftheMonth_cos', 'DayoftheMonth_sin', 'WeekoftheMonth_cos', 'WeekoftheMonth_sin', 'DayoftheWeek_cos', 'DayoftheWeek_sin']","(187,)/(51,)/(25,)",32,100,0.001,Adam,True,False,3,1,1,4260705920294,1.015197718631165,"Model: ""sequential_3""
_________________________________________________________________
 Layer (type)                Output Shape              Param #   
=================================================================
 conv1d (Conv1D)             (None, 2, 16)             2800      
                                                                 
 flatten_3 (Flatten)         (None, 32)                0         
                                                                 
 dense_7 (Dense)             (None, 32)                1056      
                                                                 
 dropout_3 (Dropout)         (None, 32)                0         
                                                                 
 dense_8 (Dense)             (None, 1)                 33        
                                                                 
 reshape_3 (Reshape)         (None, 1, 1)              0         
                                                                 
=================================================================
Total params: 3,889
Trainable params: 3,889
Non-trainable params: 0
_________________________________________________________________",15.69921875,3889.0,0.0,11.0,10.0
21,5,SingleOutput,RNN,0.6035088300704956,0.7630727291107178,0.8133209943771362,0.645179450
…
20553', '4260705920560', '4260705920577', '4260705920584', '4260705920591', '4260705920607', '4260705920638', 'total_quantity_day', 'DayoftheMonth_cos', 'DayoftheMonth_sin', 'WeekoftheMonth_cos', 'WeekoftheMonth_sin', 'DayoftheWeek_cos', 'DayoftheWeek_sin']","(187,)/(51,)/(25,)",32,100,0.001,Adam,True,False,3,1,1,4260705920294,0.9982319391634972,"Model: ""sequential_4""
_________________________________________________________________
 Layer (type)                Output Shape              Param #   
=================================================================
 lstm (LSTM)                 (None, 3, 16)             6656      
                                                                 
 flatten_4 (Flatten)         (None, 48)                0         
                                                                 
 dropout_4 (Dropout)         (None, 48)                0         
                                                                 
 dense_9 (Dense)             (None, 1)                 49        
                                                                 
 reshape_4 (Reshape)         (None, 1, 1)              0         
                                                                 
=================================================================
Total params: 6,705
Trainable params: 6,705
Non-trainable params: 0
_________________________________________________________________",26.76171875,6705.0,0.0,14.0,10.0
22,0,SingleOutput-7Days,Persistence,1.951138019561768,1.10514235496521,1.151148557662964,1
…
state', 'isWeekend', 'isWeekStart', 'isWeekEnd', 'isMonthStart', 'isMonthEnd', 'isHoliday', '4260705920294', 'total_quantity_day', 'DayoftheMonth_cos', 'DayoftheMonth_sin', 'WeekoftheMonth_cos', 'WeekoftheMonth_sin', 'DayoftheWeek_cos', 'DayoftheWeek_sin']","(183,)/(47,)/(21,)",32,100,0.001,Adam,True,False,7,1,1,4260705920294,1.0277808764939946,"Model: ""sequential_30""
_________________________________________________________________
 Layer (type)                Output Shape              Param #   
=================================================================
 flatten_24 (Flatten)        (None, 224)               0         
                                                                 
 dense_51 (Dense)            (None, 64)                14400     
                                                                 
 dense_52 (Dense)            (None, 64)                4160      
                                                                 
 dropout_23 (Dropout)        (None, 64)                0         
                                                                 
 dense_53 (Dense)            (None, 1)                 65        
                                                                 
 reshape_30 (Reshape)        (None, 1, 1)              0         
                                                                 
=================================================================
Total params: 18,625
Trainable params: 18,625
Non-trainable params: 0
_________________________________________________________________",74.38671875,18625.0,0.0,9.0,4.0
25,3,SingleOutput-7Days,Multi Step Dense,0.947806715965271,0.5987082123756409,0.809871196
…
state', 'isWeekend', 'isWeekStart', 'isWeekEnd', 'isMonthStart', 'isMonthEnd', 'isHoliday', '4260705920294', 'total_quantity_day', 'DayoftheMonth_cos', 'DayoftheMonth_sin', 'WeekoftheMonth_cos', 'WeekoftheMonth_sin', 'DayoftheWeek_cos', 'DayoftheWeek_sin']","(183,)/(47,)/(21,)",32,100,0.001,Adam,True,False,7,1,1,4260705920294,1.0197888446212806,"Model: ""sequential_31""
_________________________________________________________________
 Layer (type)                Output Shape              Param #   
=================================================================
 flatten_25 (Flatten)        (None, 224)               0         
                                                                 
 dense_54 (Dense)            (None, 32)                7200      
                                                                 
 dropout_24 (Dropout)        (None, 32)                0         
                                                                 
 dense_55 (Dense)            (None, 32)                1056      
                                                                 
 dropout_25 (Dropout)        (None, 32)                0         
                                                                 
 dense_56 (Dense)            (None, 1)                 33        
                                                                 
 reshape_31 (Reshape)        (None, 1, 1)              0         
                                                                 
=================================================================
Total params: 8,289
Trainable params: 8,289
Non-trainable params: 0
_________________________________________________________________",33.76171875,8289.0,0.0,17.0,11.0
26,4,SingleOutput-7Days,Convolutional,0.3603202402591705,0.5666735768318176,0.594514787197
…
y state', 'isWeekend', 'isWeekStart', 'isWeekEnd', 'isMonthStart', 'isMonthEnd', 'isHoliday', '4260705920294', 'total_quantity_day', 'DayoftheMonth_cos', 'DayoftheMonth_sin', 'WeekoftheMonth_cos', 'WeekoftheMonth_sin', 'DayoftheWeek_cos', 'DayoftheWeek_sin']","(183,)/(47,)/(21,)",32,100,0.001,Adam,True,False,7,1,1,4260705920294,1.01413545816733,"Model: ""sequential_32""
_________________________________________________________________
 Layer (type)                Output Shape              Param #   
=================================================================
 conv1d_5 (Conv1D)           (None, 6, 16)             1040      
                                                                 
 flatten_26 (Flatten)        (None, 96)                0         
                                                                 
 dense_57 (Dense)            (None, 32)                3104      
                                                                 
 dropout_26 (Dropout)        (None, 32)                0         
                                                                 
 dense_58 (Dense)            (None, 1)                 33        
                                                                 
 reshape_32 (Reshape)        (None, 1, 1)              0         
                                                                 
=================================================================
Total params: 4,177
Trainable params: 4,177
Non-trainable params: 0
_________________________________________________________________",17.32421875,4177.0,0.0,10.0,9.0
27,5,SingleOutput-7Days,RNN,0.565454363822937,0.4456999897956848,0.6510739922523499,0.63799
…
 state', 'isWeekend', 'isWeekStart', 'isWeekEnd', 'isMonthStart', 'isMonthEnd', 'isHoliday', '4260705920294', 'total_quantity_day', 'DayoftheMonth_cos', 'DayoftheMonth_sin', 'WeekoftheMonth_cos', 'WeekoftheMonth_sin', 'DayoftheWeek_cos', 'DayoftheWeek_sin']","(183,)/(47,)/(21,)",32,100,0.001,Adam,True,False,7,1,1,4260705920294,1.064533864541863,"Model: ""sequential_33""
_________________________________________________________________
 Layer (type)                Output Shape              Param #   
=================================================================
 lstm_9 (LSTM)               (None, 7, 16)             3136      
                                                                 
 flatten_27 (Flatten)        (None, 112)               0         
                                                                 
 dropout_27 (Dropout)        (None, 112)               0         
                                                                 
 dense_59 (Dense)            (None, 1)                 113       
                                                                 
 reshape_33 (Reshape)        (None, 1, 1)              0         
                                                                 
=================================================================
Total params: 3,249
Trainable params: 3,249
Non-trainable params: 0
_________________________________________________________________",14.01171875,3249.0,0.0,12.0,11.0
28,6,SingleOutput-7Days,PersistenceSameDayLastWeek,1.0853540897369385,0.6186016798019409,0
…
0553', '4260705920560', '4260705920577', '4260705920584', '4260705920591', '4260705920607', '4260705920638', 'total_quantity_day', 'DayoftheMonth_cos', 'DayoftheMonth_sin', 'WeekoftheMonth_cos', 'WeekoftheMonth_sin', 'DayoftheWeek_cos', 'DayoftheWeek_sin']","(187,)/(51,)/(25,)",32,100,0.001,Adam,True,False,3,1,1,4260705920294,0.9875323193916852,"Model: ""sequential_20""
_________________________________________________________________
 Layer (type)                Output Shape              Param #   
=================================================================
 flatten_14 (Flatten)        (None, 207)               0         
                                                                 
 dense_31 (Dense)            (None, 64)                13312     
                                                                 
 dense_32 (Dense)            (None, 64)                4160      
                                                                 
 dropout_13 (Dropout)        (None, 64)                0         
                                                                 
 dense_33 (Dense)            (None, 1)                 65        
                                                                 
 reshape_20 (Reshape)        (None, 1, 1)              0         
                                                                 
=================================================================
Total params: 17,537
Trainable params: 17,537
Non-trainable params: 0
_________________________________________________________________",70.0703125,17537.0,0.0,14.0,4.0
32,3,SingleOutput-NoWeather,Multi Step Dense,0.9793201088905334,0.7391743659973145,0.9002
…
20553', '4260705920560', '4260705920577', '4260705920584', '4260705920591', '4260705920607', '4260705920638', 'total_quantity_day', 'DayoftheMonth_cos', 'DayoftheMonth_sin', 'WeekoftheMonth_cos', 'WeekoftheMonth_sin', 'DayoftheWeek_cos', 'DayoftheWeek_sin']","(187,)/(51,)/(25,)",32,100,0.001,Adam,True,False,3,1,1,4260705920294,0.977703422053026,"Model: ""sequential_21""
_________________________________________________________________
 Layer (type)                Output Shape              Param #   
=================================================================
 flatten_15 (Flatten)        (None, 207)               0         
                                                                 
 dense_34 (Dense)            (None, 32)                6656      
                                                                 
 dropout_14 (Dropout)        (None, 32)                0         
                                                                 
 dense_35 (Dense)            (None, 32)                1056      
                                                                 
 dropout_15 (Dropout)        (None, 32)                0         
                                                                 
 dense_36 (Dense)            (None, 1)                 33        
                                                                 
 reshape_21 (Reshape)        (None, 1, 1)              0         
                                                                 
=================================================================
Total params: 7,745
Trainable params: 7,745
Non-trainable params: 0
_________________________________________________________________",31.5703125,7745.0,0.0,17.0,11.0
33,4,SingleOutput-NoWeather,Convolutional,0.4669067859649658,0.6659794449806213,0.797392785
…
0553', '4260705920560', '4260705920577', '4260705920584', '4260705920591', '4260705920607', '4260705920638', 'total_quantity_day', 'DayoftheMonth_cos', 'DayoftheMonth_sin', 'WeekoftheMonth_cos', 'WeekoftheMonth_sin', 'DayoftheWeek_cos', 'DayoftheWeek_sin']","(187,)/(51,)/(25,)",32,100,0.001,Adam,True,False,3,1,1,4260705920294,0.9978326996197522,"Model: ""sequential_22""
_________________________________________________________________
 Layer (type)                Output Shape              Param #   
=================================================================
 conv1d_3 (Conv1D)           (None, 2, 16)             2224      
                                                                 
 flatten_16 (Flatten)        (None, 32)                0         
                                                                 
 dense_37 (Dense)            (None, 32)                1056      
                                                                 
 dropout_16 (Dropout)        (None, 32)                0         
                                                                 
 dense_38 (Dense)            (None, 1)                 33        
                                                                 
 reshape_22 (Reshape)        (None, 1, 1)              0         
                                                                 
=================================================================
Total params: 3,313
Trainable params: 3,313
Non-trainable params: 0
_________________________________________________________________",13.44921875,3313.0,0.0,12.0,10.0
34,5,SingleOutput-NoWeather,RNN,0.6429294347763062,0.6116563677787781,1.037010669708252,0.
…
0553', '4260705920560', '4260705920577', '4260705920584', '4260705920591', '4260705920607', '4260705920638', 'total_quantity_day', 'DayoftheMonth_cos', 'DayoftheMonth_sin', 'WeekoftheMonth_cos', 'WeekoftheMonth_sin', 'DayoftheWeek_cos', 'DayoftheWeek_sin']","(187,)/(51,)/(25,)",32,100,0.001,Adam,True,False,3,1,1,4260705920294,1.0756920152092124,"Model: ""sequential_23""
_________________________________________________________________
 Layer (type)                Output Shape              Param #   
=================================================================
 lstm_7 (LSTM)               (None, 3, 16)             5504      
                                                                 
 flatten_17 (Flatten)        (None, 48)                0         
                                                                 
 dropout_17 (Dropout)        (None, 48)                0         
                                                                 
 dense_39 (Dense)            (None, 1)                 49        
                                                                 
 reshape_23 (Reshape)        (None, 1, 1)              0         
                                                                 
=================================================================
Total params: 5,553
Trainable params: 5,553
Non-trainable params: 0
_________________________________________________________________",22.26171875,5553.0,0.0,14.0,10.0
35,0,MultiOutput,Baseline,1.2929130792617798,3.1950650215148926,3.826861619949341,0.477840
…
 '4260705920553', '4260705920560', '4260705920577', '4260705920584', '4260705920591', '4260705920607', '4260705920638', 'total_quantity_day', 'DayoftheMonth_cos', 'DayoftheMonth_sin', 'WeekoftheMonth_cos', 'WeekoftheMonth_sin', 'DayoftheWeek_cos', 'DayoftheWeek_sin']","(187,)/(51,)/(25,)",32,100,0.001,Adam,True,False,3,1,1,All,0.9090418250950272,"Model: ""sequential_5""
_________________________________________________________________
 Layer (type)                Output Shape              Param #   
=================================================================
 flatten_5 (Flatten)         (None, 261)               0         
                                                                 
 dense_10 (Dense)            (None, 64)                16768     
                                                                 
 dense_11 (Dense)            (None, 64)                4160      
                                                                 
 dropout_5 (Dropout)         (None, 64)                0         
                                                                 
 dense_12 (Dense)            (None, 87)                5655      
                                                                 
 reshape_5 (Reshape)         (None, 1, 87)             0         
                                                                 
=================================================================
Total params: 26,583
Trainable params: 26,583
Non-trainable params: 0
_________________________________________________________________",106.2890625,26583.0,0.0,1.0,1.0
37,2,MultiOutput,RNN,0.7310656309127808,2.626949548721313,4.146266937255859,0.50209516286
…
 '4260705920553', '4260705920560', '4260705920577', '4260705920584', '4260705920591', '4260705920607', '4260705920638', 'total_quantity_day', 'DayoftheMonth_cos', 'DayoftheMonth_sin', 'WeekoftheMonth_cos', 'WeekoftheMonth_sin', 'DayoftheWeek_cos', 'DayoftheWeek_sin']","(187,)/(51,)/(25,)",32,100,0.001,Adam,True,False,3,1,1,All,0.9420798479087305,"Model: ""sequential_6""
_________________________________________________________________
 Layer (type)                Output Shape              Param #   
=================================================================
 lstm_1 (LSTM)               (None, 3, 16)             6656      
                                                                 
 flatten_6 (Flatten)         (None, 48)                0         
                                                                 
 dropout_6 (Dropout)         (None, 48)                0         
                                                                 
 dense_13 (Dense)            (None, 87)                4263      
                                                                 
 reshape_6 (Reshape)         (None, 1, 87)             0         
                                                                 
=================================================================
Total params: 10,919
Trainable params: 10,919
Non-trainable params: 0
_________________________________________________________________",43.89453125,10919.0,0.0,1.0,1.0
38,3,MultiOutput,ResidualRNN,1.2720402479171753,3.462270736694336,3.7686941623687744,0.54
…
