…
05920546', '4260705920553', '4260705920560', '4260705920577', '4260705920584', '4260705920591', '4260705920607', '4260705920638', 'total_quantity_day', 'DayoftheMonth_cos', 'DayoftheMonth_sin', 'WeekoftheMonth_cos', 'WeekoftheMonth_sin', 'DayoftheWeek_cos', 'DayoftheWeek_sin']",187/51/25,32,100,0.001,Adam,True,False,3,1,1,All,0.9595741444866538,"Model: ""sequential_12""
_________________________________________________________________
 Layer (type)                Output Shape              Param #   
=================================================================
 flatten_9 (Flatten)         (None, 207)               0         
                                                                 
 dense_21 (Dense)            (None, 64)                13312     
                                                                 
 dropout_11 (Dropout)        (None, 64)                0         
                                                                 
 dense_22 (Dense)            (None, 64)                4160      
                                                                 
 dropout_12 (Dropout)        (None, 64)                0         
                                                                 
 dense_23 (Dense)            (None, 69)                4485      
                                                                 
 reshape_12 (Reshape)        (None, 1, 69)             0         
                                                                 
=================================================================
Total params: 21,957
Trainable params: 21,957
Non-trainable params: 0
_________________________________________________________________",0.1033782958984375,21957.0,0.0
3,2,MultiOutput-NoWeather,RNN,0.4864358603954315,0.7982327342033386,0.9983988404273988,0.7
…
05920546', '4260705920553', '4260705920560', '4260705920577', '4260705920584', '4260705920591', '4260705920607', '4260705920638', 'total_quantity_day', 'DayoftheMonth_cos', 'DayoftheMonth_sin', 'WeekoftheMonth_cos', 'WeekoftheMonth_sin', 'DayoftheWeek_cos', 'DayoftheWeek_sin']",187/51/25,32,100,0.001,Adam,True,False,3,1,1,All,0.9552129277566038,"Model: ""sequential_13""
_________________________________________________________________
 Layer (type)                Output Shape              Param #   
=================================================================
 lstm_4 (LSTM)               (None, 3, 16)             5504      
                                                                 
 flatten_10 (Flatten)        (None, 48)                0         
                                                                 
 dropout_13 (Dropout)        (None, 48)                0         
                                                                 
 dense_24 (Dense)            (None, 69)                3381      
                                                                 
 reshape_13 (Reshape)        (None, 1, 69)             0         
                                                                 
=================================================================
Total params: 8,885
Trainable params: 8,885
Non-trainable params: 0
_________________________________________________________________",0.051910400390625,8885.0,0.0
4,3,MultiOutput-NoWeather,ResidualRNN,0.521019458770752,0.8292686343193054,0.8834754228591919,
…
, '4260705920553', '4260705920560', '4260705920577', '4260705920584', '4260705920591', '4260705920607', '4260705920638', 'total_quantity_day', 'DayoftheMonth_cos', 'DayoftheMonth_sin', 'WeekoftheMonth_cos', 'WeekoftheMonth_sin', 'DayoftheWeek_cos', 'DayoftheWeek_sin']",187/51/25,32,100,0.001,Adam,True,False,3,1,1,4260705920294,0.7502813688212997,"Model: ""sequential_1""
_________________________________________________________________
 Layer (type)                Output Shape              Param #   
=================================================================
 flatten_1 (Flatten)         (None, 261)               0         
                                                                 
 dense_1 (Dense)             (None, 64)                16768     
                                                                 
 dropout (Dropout)           (None, 64)                0         
                                                                 
 dense_2 (Dense)             (None, 64)                4160      
                                                                 
 dropout_1 (Dropout)         (None, 64)                0         
                                                                 
 dense_3 (Dense)             (None, 1)                 65        
                                                                 
 reshape_1 (Reshape)         (None, 1, 1)              0         
                                                                 
=================================================================
Total params: 20,993
Trainable params: 20,993
Non-trainable params: 0
_________________________________________________________________",0.09979248046875,20993.0,0.0
21,3,SingleOutput,Multi Step Dense,0.8200092911720276,0.6551355123519897,0.7566741704940796,
…
, '4260705920553', '4260705920560', '4260705920577', '4260705920584', '4260705920591', '4260705920607', '4260705920638', 'total_quantity_day', 'DayoftheMonth_cos', 'DayoftheMonth_sin', 'WeekoftheMonth_cos', 'WeekoftheMonth_sin', 'DayoftheWeek_cos', 'DayoftheWeek_sin']",187/51/25,32,100,0.001,Adam,True,False,3,1,1,4260705920294,0.7937794676805896,"Model: ""sequential_2""
_________________________________________________________________
 Layer (type)                Output Shape              Param #   
=================================================================
 flatten_2 (Flatten)         (None, 261)               0         
                                                                 
 dense_4 (Dense)             (None, 32)                8384      
                                                                 
 dropout_2 (Dropout)         (None, 32)                0         
                                                                 
 dense_5 (Dense)             (None, 32)                1056      
                                                                 
 dropout_3 (Dropout)         (None, 32)                0         
                                                                 
 dense_6 (Dense)             (None, 1)                 33        
                                                                 
 reshape_2 (Reshape)         (None, 1, 1)              0         
                                                                 
=================================================================
Total params: 9,473
Trainable params: 9,473
Non-trainable params: 0
_________________________________________________________________",0.0561370849609375,9473.0,0.0
22,4,SingleOutput,Convolutional,0.5189071297645569,0.8054750561714172,0.9733110070228576,0.40
…
, '4260705920553', '4260705920560', '4260705920577', '4260705920584', '4260705920591', '4260705920607', '4260705920638', 'total_quantity_day', 'DayoftheMonth_cos', 'DayoftheMonth_sin', 'WeekoftheMonth_cos', 'WeekoftheMonth_sin', 'DayoftheWeek_cos', 'DayoftheWeek_sin']",187/51/25,32,100,0.001,Adam,True,False,3,1,1,4260705920294,1.0387300380228506,"Model: ""sequential_3""
_________________________________________________________________
 Layer (type)                Output Shape              Param #   
=================================================================
 conv1d (Conv1D)             (None, 2, 16)             2800      
                                                                 
 flatten_3 (Flatten)         (None, 32)                0         
                                                                 
 dense_7 (Dense)             (None, 32)                1056      
                                                                 
 dropout_4 (Dropout)         (None, 32)                0         
                                                                 
 dense_8 (Dense)             (None, 1)                 33        
                                                                 
 reshape_3 (Reshape)         (None, 1, 1)              0         
                                                                 
=================================================================
Total params: 3,889
Trainable params: 3,889
Non-trainable params: 0
_________________________________________________________________",0.0341644287109375,3889.0,0.0
23,5,SingleOutput,RNN,0.6333534717559814,0.6061393618583679,0.6670355796813965,0.582278132438
…
', '4260705920553', '4260705920560', '4260705920577', '4260705920584', '4260705920591', '4260705920607', '4260705920638', 'total_quantity_day', 'DayoftheMonth_cos', 'DayoftheMonth_sin', 'WeekoftheMonth_cos', 'WeekoftheMonth_sin', 'DayoftheWeek_cos', 'DayoftheWeek_sin']",187/51/25,32,100,0.001,Adam,True,False,3,1,1,4260705920294,1.043973384030401,"Model: ""sequential_4""
_________________________________________________________________
 Layer (type)                Output Shape              Param #   
=================================================================
 lstm (LSTM)                 (None, 3, 16)             6656      
                                                                 
 flatten_4 (Flatten)         (None, 48)                0         
                                                                 
 dropout_5 (Dropout)         (None, 48)                0         
                                                                 
 dense_9 (Dense)             (None, 1)                 49        
                                                                 
 reshape_4 (Reshape)         (None, 1, 1)              0         
                                                                 
=================================================================
Total params: 6,705
Trainable params: 6,705
Non-trainable params: 0
_________________________________________________________________",0.0434341430664062,6705.0,0.0
24,0,SingleOutput-NoWeather,Persistence,1.0667024850845337,0.8629388213157654,0.8459042310714
…
 '4260705920553', '4260705920560', '4260705920577', '4260705920584', '4260705920591', '4260705920607', '4260705920638', 'total_quantity_day', 'DayoftheMonth_cos', 'DayoftheMonth_sin', 'WeekoftheMonth_cos', 'WeekoftheMonth_sin', 'DayoftheWeek_cos', 'DayoftheWeek_sin']",187/51/25,32,100,0.001,Adam,True,False,3,1,1,4260705920294,0.9706007604562772,"Model: ""sequential_20""
_________________________________________________________________
 Layer (type)                Output Shape              Param #   
=================================================================
 flatten_14 (Flatten)        (None, 207)               0         
                                                                 
 dense_32 (Dense)            (None, 64)                13312     
                                                                 
 dropout_16 (Dropout)        (None, 64)                0         
                                                                 
 dense_33 (Dense)            (None, 64)                4160      
                                                                 
 dropout_17 (Dropout)        (None, 64)                0         
                                                                 
 dense_34 (Dense)            (None, 1)                 65        
                                                                 
 reshape_20 (Reshape)        (None, 1, 1)              0         
                                                                 
=================================================================
Total params: 17,537
Trainable params: 17,537
Non-trainable params: 0
_________________________________________________________________",0.0865325927734375,17537.0,0.0
27,3,SingleOutput-NoWeather,Multi Step Dense,0.80771803855896,0.6988065242767334,0.7641397
…
, '4260705920553', '4260705920560', '4260705920577', '4260705920584', '4260705920591', '4260705920607', '4260705920638', 'total_quantity_day', 'DayoftheMonth_cos', 'DayoftheMonth_sin', 'WeekoftheMonth_cos', 'WeekoftheMonth_sin', 'DayoftheWeek_cos', 'DayoftheWeek_sin']",187/51/25,32,100,0.001,Adam,True,False,3,1,1,4260705920294,0.928631178707285,"Model: ""sequential_21""
_________________________________________________________________
 Layer (type)                Output Shape              Param #   
=================================================================
 flatten_15 (Flatten)        (None, 207)               0         
                                                                 
 dense_35 (Dense)            (None, 32)                6656      
                                                                 
 dropout_18 (Dropout)        (None, 32)                0         
                                                                 
 dense_36 (Dense)            (None, 32)                1056      
                                                                 
 dropout_19 (Dropout)        (None, 32)                0         
                                                                 
 dense_37 (Dense)            (None, 1)                 33        
                                                                 
 reshape_21 (Reshape)        (None, 1, 1)              0         
                                                                 
=================================================================
Total params: 7,745
Trainable params: 7,745
Non-trainable params: 0
_________________________________________________________________",0.0495452880859375,7745.0,0.0
28,4,SingleOutput-NoWeather,Convolutional,0.5806639790534973,0.7244313359260559,0.86053472757
…
 '4260705920553', '4260705920560', '4260705920577', '4260705920584', '4260705920591', '4260705920607', '4260705920638', 'total_quantity_day', 'DayoftheMonth_cos', 'DayoftheMonth_sin', 'WeekoftheMonth_cos', 'WeekoftheMonth_sin', 'DayoftheWeek_cos', 'DayoftheWeek_sin']",187/51/25,32,100,0.001,Adam,True,False,3,1,1,4260705920294,1.0646045627376253,"Model: ""sequential_22""
_________________________________________________________________
 Layer (type)                Output Shape              Param #   
=================================================================
 conv1d_3 (Conv1D)           (None, 2, 16)             2224      
                                                                 
 flatten_16 (Flatten)        (None, 32)                0         
                                                                 
 dense_38 (Dense)            (None, 32)                1056      
                                                                 
 dropout_20 (Dropout)        (None, 32)                0         
                                                                 
 dense_39 (Dense)            (None, 1)                 33        
                                                                 
 reshape_22 (Reshape)        (None, 1, 1)              0         
                                                                 
=================================================================
Total params: 3,313
Trainable params: 3,313
Non-trainable params: 0
_________________________________________________________________",0.0319671630859375,3313.0,0.0
29,5,SingleOutput-NoWeather,RNN,0.6558418273925781,0.6736647486686707,0.8386946320533752,0.61
…
 '4260705920553', '4260705920560', '4260705920577', '4260705920584', '4260705920591', '4260705920607', '4260705920638', 'total_quantity_day', 'DayoftheMonth_cos', 'DayoftheMonth_sin', 'WeekoftheMonth_cos', 'WeekoftheMonth_sin', 'DayoftheWeek_cos', 'DayoftheWeek_sin']",187/51/25,32,100,0.001,Adam,True,False,3,1,1,4260705920294,1.0600950570343497,"Model: ""sequential_23""
_________________________________________________________________
 Layer (type)                Output Shape              Param #   
=================================================================
 lstm_7 (LSTM)               (None, 3, 16)             5504      
                                                                 
 flatten_17 (Flatten)        (None, 48)                0         
                                                                 
 dropout_21 (Dropout)        (None, 48)                0         
                                                                 
 dense_40 (Dense)            (None, 1)                 49        
                                                                 
 reshape_23 (Reshape)        (None, 1, 1)              0         
                                                                 
=================================================================
Total params: 5,553
Trainable params: 5,553
Non-trainable params: 0
_________________________________________________________________",0.039276123046875,5553.0,0.0
30,0,MultiOutput,Baseline,0.4778410196304321,0.6182838678359985,0.6902061700820923,1.292913079
…
0705920546', '4260705920553', '4260705920560', '4260705920577', '4260705920584', '4260705920591', '4260705920607', '4260705920638', 'total_quantity_day', 'DayoftheMonth_cos', 'DayoftheMonth_sin', 'WeekoftheMonth_cos', 'WeekoftheMonth_sin', 'DayoftheWeek_cos', 'DayoftheWeek_sin']",187/51/25,32,100,0.001,Adam,True,False,3,1,1,All,1.038323193916333,"Model: ""sequential_5""
_________________________________________________________________
 Layer (type)                Output Shape              Param #   
=================================================================
 flatten_5 (Flatten)         (None, 261)               0         
                                                                 
 dense_10 (Dense)            (None, 64)                16768     
                                                                 
 dropout_6 (Dropout)         (None, 64)                0         
                                                                 
 dense_11 (Dense)            (None, 64)                4160      
                                                                 
 dropout_7 (Dropout)         (None, 64)                0         
                                                                 
 dense_12 (Dense)            (None, 87)                5655      
                                                                 
 reshape_5 (Reshape)         (None, 1, 87)             0         
                                                                 
=================================================================
Total params: 26,583
Trainable params: 26,583
Non-trainable params: 0
_________________________________________________________________",0.1209564208984375,26583.0,0.0
32,2,MultiOutput,RNN,0.5027703046798706,0.8822830319404602,1.0064259767532349,0.7312602400
…
705920546', '4260705920553', '4260705920560', '4260705920577', '4260705920584', '4260705920591', '4260705920607', '4260705920638', 'total_quantity_day', 'DayoftheMonth_cos', 'DayoftheMonth_sin', 'WeekoftheMonth_cos', 'WeekoftheMonth_sin', 'DayoftheWeek_cos', 'DayoftheWeek_sin']",187/51/25,32,100,0.001,Adam,True,False,3,1,1,All,0.9088517110265796,"Model: ""sequential_6""
_________________________________________________________________
 Layer (type)                Output Shape              Param #   
=================================================================
 lstm_1 (LSTM)               (None, 3, 16)             6656      
                                                                 
 flatten_6 (Flatten)         (None, 48)                0         
                                                                 
 dropout_8 (Dropout)         (None, 48)                0         
                                                                 
 dense_13 (Dense)            (None, 87)                4263      
                                                                 
 reshape_6 (Reshape)         (None, 1, 87)             0         
                                                                 
=================================================================
Total params: 10,919
Trainable params: 10,919
Non-trainable params: 0
_________________________________________________________________",0.059600830078125,10919.0,0.0
33,3,MultiOutput,ResidualRNN,0.5449503064155579,0.774215817451477,0.7833001613616943,1.2812
…
